low_rank_MPLN/test_sim/model/test_sim_123.pth (torch, 97346 bytes, 7 tensors)

a f4 [50]
0	0x40058c30	2.0866814
1	0x3ff9a6b1	1.9503995
2	0x3fe19bc3	1.762566
3	0x3fc86a85	1.5657507
4	0x3fa0b779	1.2555991
5	0x3f8372f9	1.0269462
6	0x3f44e594	0.7691281
7	0x3f0d7427	0.5525536
8	0x3ec2459f	0.37943742
9	0x3e44068f	0.19143127
10	0x3bb9d820	0.005671516
11	0xbddd6410	-0.10810101
12	0xbec13c02	-0.37741095
13	0xbebcd71a	-0.3688286
14	0xbeecdd76	-0.4626271
15	0xbf2e8180	-0.6816635
16	0xbf5a2ffb	-0.8522946
17	0xbf811857	-1.0085553
18	0xbf73af5a	-0.9518944
19	0xbf6b7e9d	-0.9199007
20	0xbf9adcd9	-1.2098647
21	0xbf99dcd0	-1.2020512
22	0xbfb842dd	-1.4395405
23	0xbfa590f4	-1.2934861
24	0xbfb5d106	-1.4204414
25	0xbfb9dd80	-1.4520721
26	0xbfcbbc2b	-1.5916799
27	0xbfe4acc9	-1.786523
28	0xbfcccef9	-1.6000663
29	0xbfdbd636	-1.7174747
30	0xbfd7ab91	-1.6849233
31	0xbff1fff4	-1.8906236
32	0xbfea610d	-1.8310868
33	0xbff14912	-1.8850424
34	0xbffcd558	-1.9752607
35	0xc0002ed0	-2.0028572
36	0xbff24520	-1.8927345
37	0xc0179ec7	-2.369066
38	0xc002d50f	-2.044254
39	0xbff0e855	-1.8820902
40	0xc008934c	-2.1339903
41	0xbff91190	-1.9458485
42	0xc0065bd6	-2.0993552
43	0xbff8dccf	-1.9442385
44	0xc00c966e	-2.1966815
45	0xc01605cb	-2.3441036
46	0xc00bceff	-2.184509
47	0xc000a9c1	-2.010361
48	0xc00be9a8	-2.1861362
49	0xc014f6fb	-2.3275745

weight f4 [100, 50]
0	0x3ce53927	0.027981354
1	0xbd949cc6	-0.07256465
2	0xbeb09a82	-0.3449288
3	0x3bf8910f	0.0075856517
4	0x3c55f5ab	0.01305906
5	0xbbc2f246	-0.0059492914
6	0x3b452b64	0.0030085677
7	0xbb8dd518	-0.0043283813
8	0x3a247915	0.0006274146
9	0xbb96de77	-0.0046041566
10	0x3b98db06	0.0046647815
11	0x3c2692c4	0.010166828
12	0xbc10267a	-0.008798236
13	0x3c0e4624	0.008683715
14	0xbbc65fd7	-0.0060539055
15	0x3aea5211	0.0017877241
16	0x3ba1118c	0.004915422
17	0x3bda34c7	0.0066591236
18	0xbbaaea69	-0.005215932
19	0x3b602ae0	0.0034205243
20	0x3b5afb25	0.0033413854
21	0x3b5a537e	0.0033313925
22	0xbaf1aa71	-0.0018437636
23	0x3b211cb1	0.0024583752
24	0x3b2800b6	0.002563519
25	0xbbb99822	-0.0056638876
26	0x3c8773c8	0.016534701
27	0xba9a8c48	-0.0011791075
28	0xbb8c1d08	-0.0042759217
29	0x3c28c340	0.0103004575
30	0x3bb7dea4	0.0056112576
31	0x39cb6c95	0.00038800077
32	0xbb7b32e5	-0.0038329896
33	0xbad21304	-0.0016027396
34	0x3b36ec88	0.002791198
35	0xbac27b05	-0.0014837688
36	0x3985cff3	0.0002552267
37	0x3ba7cabe	0.0051206043
38	0x3bb84001	0.0056228642
39	0x3a587320	0.0008256901
40	0x3b1e115b	0.0024119231
41	0xbba69c61	-0.00508456
42	0x3c27ce45	0.01024205
43	0x3ada5e97	0.001666027
44	0xbac6ec92	-0.0015176705
45	0x3b885a3e	0.0041611483
46	0x3c2be365	0.010491227
47	0xbbd0f508	-0.0063768663
48	0x3b78b154	0.0037947493
49	0x3b3de5fc	0.0028976193
50	0xbca0fc57	-0.019651575
51	0x3c704e80	0.014667153
52	0x3b73b932	0.0037189242
53	0xbc4c41fe	-0.012466906
54	0xbbd6ecba	-0.0065589817
55	0x3c94309f	0.01808959
56	0x3c812937	0.015766723
57	0xbc737f2f	-0.014861866
58	0xbbb55191	-0.005533405
59	0x3cec2106	0.02882434
60	0xbd01d2be	-0.03169512
61	0xbc0dcc65	-0.0086546885
62	0x3c03ddf7	0.008048526
63	0xbc49cce9	-0.012316921
64	0x3c24a4ee	0.010049088
65	0xbc022cb6	-0.00794523
66	0x3bdb85af	0.006699286
67	0xbb2bdf6c	-0.00262257
68	0xbd43ac6e	-0.047771864
69	0x3d876a46	0.06612067
70	0x3d1e9ba0	0.038722634
71	0xbca9fae9	-0.020749526
72	0xbcc48d42	-0.023993138
73	0xbc45b0c0	-0.012066066
74	0x3db11933	0.086473845
75	0xbd0dfabb	-0.034662943
76	0x3bfcd001	0.0077152257
77	0x3dcfa0b8	0.101380765
78	0xbce6c243	-0.028168803
79	0xbc24a843	-0.010049882
80	0xbc63ea9d	-0.013910917
81	0x3cd08a85	0.025456676
82	0xbbb18bfc	-0.0054182988
83	0xbb04dd93	-0.002027367
84	0x3baadcdf	0.005214318
85	0xbbaeaf00	-0.00533092
86	0x3a44c21a	0.000750573
87	0xba8fd4dd	-0.0010973472
88	0xbc112391	-0.008858577
89	0xbc81ebde	-0.01585954
90	0x3cb45feb	0.022018394
91	0x3d0ea4e5	0.034825224
92	0xbd4b2f86	-0.04960587
93	0x3dea765f	0.11448359
94	0xbd6580f5	-0.056031186
95	0x3ce0a6a6	0.027423214
96	0xbd341c63	-0.043972384
97	0xbb9228d8	-0.0044604354
98	0x3daa1a8c	0.08305845
99	0x3d2eeedf	0.042708274
100	0xbc12a3d4	-0.0089501925
101	0xba30e296	-0.0006747631
102	0x3c48c2c3	0.012253466
103	0x3bb7a85b	0.0056047863
104	0xbb9645bd	-0.00458595
105	0x397eac7a	0.0002428758
106	0x3abedd92	0.0014561883
107	0x39917e05	0.00027750447
108	0xbbf37895	-0.007430146
109	0x3bc1271b	0.0058945543
110	0x39862654	0.00025587028
111	0xb998973a	-0.00029104372
112	0x3b2c142f	0.0026257148
113	0xbc091b28	-0.008368291
114	0xbbaf40d6	-0.005348305
115	0xbbef50c9	-0.0073033315
116	0xbb3fe117	-0.002927845
117	0xbcdc660d	-0.02690413
118	0xbd93f58b	-0.07224568
119	0xbe52f343	-0.2060061
120	0xbe99003e	-0.29882997
121	0xbe940d91	-0.289166
122	0xbe1524b6	-0.14564785
123	0xbd0b4964	-0.034005538
124	0xbc1e9e92	-0.009681361
125	0xbbe21a9c	-0.0069001447
126	0x3b03e8a6	0.0020127683
127	0x3b6d92d3	0.0036250844
128	0xba1017a8	-0.0005496689
129	0x3ab8887f	0.0014078765
130	0x3a14d488	0.00056774216
131	0xbbb17c0c	-0.005416399
132	0x3afed46e	0.0019441971
133	0x3b8f57d7	0.004374485
134	0x3b88f1fa	0.0041792365
135	0x3b185f7b	0.002325027
136	0x3ace4dce	0.001573974
137	0xbb3bbc3d	-0.0028646134
138	0xbb1bf838	-0.0023799073
139	0x3b4377ac	0.0029825969
140	0xba9d681e	-0.0012009179
141	0xbaaa7287	-0.0013004103
142	0xbbac5148	-0.005258713
143	0x3b8840d8	0.0041581206
144	0x3a220e8e	0.00061819784
145	0x3ae88229	0.0017738986
146	0x3aec9964	0.0018051085
147	0x3b30f5aa	0.0027001896
148	0x3b8dab4c	0.0043233987
149	0xbb346669	-0.0027526862
150	0x3cf7ec41	0.030264022
151	0x3b484b9f	0.0030562652
152	0xbc5c2123	-0.013435635
153	0xbc4292b7	-0.0118758
154	0xbc9ddf1e	-0.01927143
155	0x3de3ceb5	0.111234106
156	0xbd04ee6d	-0.032453943
157	0x3df8d520	0.12150025
158	0xbcc0f55b	-0.023554495
159	0x3d40096c	0.046883985
160	0xbb8d9c1a	-0.0043215873
161	0xbba79b73	-0.0051149665
162	0xbb66b484	-0.003520281
163	0xbbb41ae4	-0.0054963697
164	0xbbd2c7cd	-0.0064325095
165	0x3c52532c	0.0128372125
166	0xbb378df8	-0.0028008204
167	0xb9a25353	-0.0003096113
168	0x3cae2fd9	0.02126305
169	0xbccaca6c	-0.024754725
170	0xbcc6e012	-0.024276767
171	0x3ddf7f91	0.10913003
172	0xbc733105	-0.01484323
173	0x3b105aac	0.00220267
174	0xbcbfe98a	-0.02342679
175	0x3cb77b14	0.022397555
176	0xbc25d396	-0.010121247
177	0xbb8e386a	-0.004340221
178	0xbb8b0fd6	-0.004243831
179	0x3c21b2cd	0.00986929
180	0xbd0ed4ad	-0.034870792
181	0x3e3076ce	0.1723282
182	0xbcb2ccdd	-0.021826202
183	0xbc431ee2	-0.0119092185
184	0xbcc3a4d1	-0.023882302
185	0x3cdc6470	0.026903361
186	0xbd157072	-0.03648419
187	0x3ce6f05e	0.028190788
188	0x3e0a66b6	0.13515744
189	0x3d1abbde	0.03777682
190	0x3a830fdc	0.0009999233
191	0xbc54362d	-0.01295237
192	0xbbb00340	-0.005371481
193	0x3ca32a04	0.019917496
194	0xbcbf6fb6	-0.023368698
195	0x3c47ae4f	0.0121875545
196	0x3c680a25	0.014162575
197	0xbc587bec	-0.013213139
198	0xbc0bca06	-0.008532053
199	0x3d201ec3	0.039091837
200	0x3958b534	0.00020666869
201	0x3bc590f1	0.0060292413
202	0x3b1159c7	0.0022178756
203	0x39ed279a	0.00045233668
204	0xba1a7f9a	-0.0005893648
205	0xbaff7eb8	-0.0019492721
206	0xbbd237ea	-0.006415357
207	0x3af63ce0	0.0018786453
208	0x3bb181d1	0.0054170866
209	0xbb949a96	-0.0045350296
210	0x3b3a195b	0.002839646
211	0x3b1a2e8f	0.0023526286
212	0x3a022f84	0.0004966187
213	0xbbcc27c4	-0.0062303264
214	0xba33c6c2	-0.00068579253
215	0xbb9cdcbd	-0.0047870562
216	0xba27e8f0	-0.0006405255
217	0x3bfce14e	0.007717288
218	0x3b00ea7d	0.0019671016
219	0xba7d33a5	-0.000965888
220	0xbb1cb7f5	-0.0023913358
221	0xbc2af9ac	-0.010435503
222	0x3bff0d10	0.0077835396
223	0x3c084b69	0.00831876
224	0xbbbb645e	-0.005718752
225	0x3b76917d	0.003762334
226	0x3b4b94d2	0.0031064046
227	0xb92c57a4	-0.00016435847
228	0x3a5a2f30	0.00083230715
229	0xb9f35575	-0.00046412242
230	0xbc210c11	-0.009829537
231	0x3bb06cfc	0.0053840857
232	0x3b03366c	0.0020021452
233	0x3c1a4bf6	0.009417525
234	0xbafb7fa5	-0.0019187821
235	0xbade7864	-0.0016973135
236	0xbb59bc69	-0.0033223873
237	0xba96ad9a	-0.0011495829
238	0xbb1d4509	-0.0023997447
239	0x3b142930	0.0022607557
240	0xba02c245	-0.0004988055
241	0x3a831dca	0.0010003385
242	0xbb30df52	-0.0026988578
243	0xbcdb9bda	-0.026807714
244	0xbda24fc3	-0.079253696
245	0xbe363dac	-0.17796963
246	0xbea43259	-0.32069662
247	0xbeba45d2	-0.36381394
248	0xbe84e67a	-0.2595709
249	0xbdd72cce	-0.10506593
250	0x3e156588	0.14589512
251	0x3d4da014	0.05020149
252	0xbd14af14	-0.03629978
253	0x3d290584	0.041265026
254	0xbbfc495d	-0.0076991753
255	0xbca3e947	-0.020008696

bias f4 [100]
0	0x3f012f49	0.50462776
1	0x3eb9b93d	0.36274138
2	0x3f7f0728	0.99620295
3	0x3dd24c5a	0.10268469
4	0x3f82b7db	1.0212358
5	0x3e3da50f	0.18519996
6	0x3ea3fb18	0.32027507
7	0x3e97d417	0.29654
8	0x3e611c9a	0.21983567
9	0x3ddf0c3d	0.10891006
10	0x3eb6751c	0.35636222
11	0x3ddd15ff	0.10795211
12	0x3eb4d5fb	0.35319504
13	0x3dc5fc27	0.09667235
14	0xbea4aa54	-0.321612
15	0x3e66d779	0.22543134
16	0x3e0f2490	0.13978791
17	0xbe0ceea1	-0.13762905
18	0x3f72fa1e	0.949129
19	0x3f7db287	0.99100536
20	0xbdda159e	-0.106486544
21	0x3dff7ce4	0.12474993
22	0x3d6cbc22	0.057796605
23	0x3de8ec62	0.113732114
24	0x3cccb0d7	0.024986668
25	0x3f853bb7	1.0408849
26	0xbde940f1	-0.1138934
27	0x3d31558b	0.04329447
28	0x3e2e2d90	0.17009568
29	0x3e46a65e	0.19399402
30	0x3e4059ca	0.18784252
31	0x3f5a3e05	0.85250884
32	0x3e85ef5e	0.26159185
33	0x3f8469d2	1.0344794
34	0x3e53be9f	0.20678185
35	0x3e7b45c1	0.24538328
36	0x3e9b8e80	0.30382156
37	0x3f6ee4b6	0.93317735
38	0x3e6b5fc9	0.22985758
39	0x3e73b4bf	0.23799418
40	0x3f7f583b	0.99744004
41	0x3e2005fd	0.15627284
42	0x3e38c31f	0.18043183
43	0xbe6f539a	-0.23371735
44	0x3dfda29b	0.1238453
45	0x3e808e6f	0.25108668
46	0x3eb2780a	0.34857208
47	0x3e057223	0.13031821
48	0x3eb67c4d	0.3564171
49	0x3dd84741	0.105604656
50	0x3f55999c	0.83437514
51	0x3f7acde4	0.97970414
52	0x3e1158fd	0.14194103
53	0x3e5f7486	0.21821794
54	0x3e5035f0	0.20333076
55	0x3e416f33	0.18890075
56	0x3e9340ae	0.28760284
57	0x3e53ca2e	0.20682594
58	0x3f14430a	0.57914793
59	0xbd92b47f	-0.07163333
60	0x3dc4b808	0.09605414
61	0x3e836732	0.2566467
62	0xbe23d576	-0.15999398
63	0x3e6495aa	0.22322717
64	0x3e6963da	0.22791997
65	0x3e02a4de	0.12758204
66	0xbc85adb0	-0.016318172
67	0x3cdae6c2	0.026721362
68	0x3e66c5f1	0.22536446
69	0x3f855631	1.0416929
70	0x3e5d817c	0.21631426
71	0x3e4864e5	0.19569738
72	0x3ea23849	0.31683567
73	0x3e285863	0.16439967
74	0x3ee52fc4	0.44763005
75	0xbe60b715	-0.2194484
76	0x3daaa6a1	0.08332563
77	0x3e02d880	0.127779
78	0x3e29809c	0.16552967
79	0x3e231d35	0.1592911
80	0x3e186f5f	0.14886235
81	0x3d849645	0.06473974
82	0x3ea9041f	0.33010957
83	0x3ea36448	0.31912446
84	0x3ea4bfe3	0.32177648
85	0xbdf65949	-0.120287485
86	0x3de88355	0.113531746
87	0x3e8fa517	0.2805564
88	0x3daa9a18	0.08330172
89	0x3e964fdb	0.293578
90	0x3e0308d4	0.12796336
91	0x3e096a28	0.13419402
92	0x3daaeec7	0.083463244
93	0x3e80fcc6	0.2519285
94	0xbf34903e	-0.70532596
95	0x3dace706	0.08442502
96	0x3e271e96	0.16320261
97	0xbb80d045	-0.0039310777
98	0x3e8980f3	0.26856193
99	0x3e8b8c91	0.2725568

weight f4 [100, 100]
0	0x3ddb2988	0.10701281
1	0x3c2db7dc	0.0106029175
2	0x3e914d6e	0.28379387
3	0xbb1c5777	-0.0023855844
4	0x3c6020e1	0.013679714
5	0x3c959c39	0.01826297
6	0x3e018e37	0.12651907
7	0x3e17af5b	0.14812987
8	0x3e12b91e	0.14328429
9	0xbc1f3206	-0.009716516
10	0x3e1bc4d2	0.152118
11	0x3a9036da	0.0011002675
12	0x3e08ee94	0.1337226
13	0xbd7d7e1c	-0.061887845
14	0xbb9f945f	-0.004869982
15	0xbd40ea24	-0.047098294
16	0x3c5d35d9	0.013501608
17	0x3c8f85e5	0.0175199
18	0x3d4c1672	0.049826093
19	0x3e1f0681	0.15529825
20	0x3c764cf4	0.0150329955
21	0x3d406e0c	0.04697995
22	0x3d0115b2	0.03151483
23	0x3e18a3a9	0.14906181
24	0xbce3d1c7	-0.02780999
25	0x3e10f754	0.14156848
26	0xbceb1d5c	-0.028700523
27	0xbb35c33e	-0.0027734782
28	0x3d67a171	0.056550447
29	0x3a8166f6	0.0009872604
30	0x3d033ee3	0.032042395
31	0x3ba6226e	0.0050700223
32	0x3dedf377	0.11618703
33	0x3e29b014	0.16571075
34	0x3ddecece	0.108792886
35	0x3e1d5593	0.15364675
36	0x3db80896	0.08986013
37	0x3da4196f	0.080126636
38	0x3e055137	0.13019262
39	0x3e1feeaf	0.15618394
40	0x3d792fa6	0.060836457
41	0x3ca19dfd	0.019728655
42	0xbc3d586d	-0.011556727
43	0x3e1c55d5	0.15267117
44	0xbdd8df26	-0.10589437
45	0x3d7d6ada	0.06186948
46	0x3e431ea0	0.19054651
47	0x3ca73119	0.020409154
48	0x3e407adc	0.18796867
49	0x3df2ab0b	0.1184903
50	0x3de26ec6	0.110562846
51	0x3e103db6	0.14086041
52	0xbc8d4781	-0.01724601
53	0xba89f3b9	-0.0010524906
54	0x3df6a026	0.12042265
55	0xbd1da14f	-0.038483914
56	0x3c99f3ca	0.018793005
57	0xbd42cad5	-0.047556717
58	0xbbc22f19	-0.0059260246
59	0x3da74114	0.081667095
60	0xbcf93696	-0.030421536
61	0x3da67e94	0.081296116
62	0x3d53012b	0.051514786
63	0x3d18e3a5	0.037326474
64	0x3df40a38	0.119160116
65	0x3b2a84fb	0.0026019204
66	0x3dad4707	0.08460813
67	0x3e09d962	0.13461831
68	0x3d47e69c	0.04880391
69	0x3b165f14	0.0022944855
70	0xbbee40ab	-0.0072708926
71	0x3db924e7	0.09040242
72	0x3e0ca66b	0.13735358
73	0x3dc9dc5a	0.09856482
74	0x3dd9701c	0.10617086
75	0xbd0c186a	-0.03420297
76	0x3d8df867	0.069321446
77	0x3dd32d37	0.103113584
78	0x3dfcfa64	0.12352446
79	0xbc3fe28a	-0.011711726
80	0x3dc193a5	0.09451989
81	0x3e1ae299	0.15125503
82	0x3ec159d0	0.37763834
83	0x3de53b9d	0.11193011
84	0x3e17dffe	0.1483154
85	0x3e1900cb	0.14941709
86	0x3d7f4ec2	0.06233097
87	0x3dbad8f8	0.09123415
88	0x3d953c72	0.0728692
89	0x3dff3f79	0.12463278
90	0x3dd935e0	0.10605979
91	0xbd14a666	-0.036291502
92	0xbd126007	-0.03573611
93	0xbcc02a92	-0.0234578
94	0x3a98108f	0.0011601615
95	0x3decd140	0.11563349
96	0x3dd560d0	0.10418856
97	0x3d9e0b7e	0.07717036
98	0x3da206c2	0.07911445
99	0x3d9a7b95	0.07543103
100	0xbc0bbbd3	-0.0085286675
101	0xbdc4548b	-0.09586438
102	0x3d0e8fc9	0.034805093
103	0xbdad8ad6	-0.084737465
104	0xbdd514de	-0.10404371
105	0xbd8842d0	-0.066533685
106	0xbda898e7	-0.08232289
107	0xbe2b3e2c	-0.16722935
108	0xbd3bb49f	-0.04582655
109	0x3d53bcbc	0.051693663
110	0xbcbd92c7	-0.023141278
111	0x3e01d4e0	0.12678862
112	0xbd8b9585	-0.06815628
113	0x3d926ec1	0.07150031
114	0xbd630007	-0.055419948
115	0xbc462241	-0.012093128
116	0xbde4fa67	-0.11180573
117	0xbc2129fc	-0.00983667
118	0xbd27d9a9	-0.04097906
119	0x3d3d3888	0.04619649
120	0xbcf758a7	-0.03019364
121	0xbc5ad60c	-0.013356697
122	0x3caf1318	0.02137141
123	0x3dbf18e9	0.09330923
124	0xbbd6137b	-0.006533084
125	0xbc000a67	-0.00781498
126	0x3db114ed	0.086465694
127	0x3dafe8fa	0.08589359
128	0xbd13fdec	-0.03613083
129	0x3d06f31a	0.032946683
130	0x3dc54557	0.09632366
131	0x3c4fc522	0.0126812775
132	0x3bbe009e	0.0057984134
133	0xbd5da240	-0.05410981
134	0xbd40e3b8	-0.04709217
135	0xbda56161	-0.08075214
136	0xbcbdaf11	-0.023154767
137	0xbb82ed87	-0.0039956006
138	0xbd1c7871	-0.0382008
139	0x3d903bc8	0.07042652
140	0xbc586c8d	-0.013209474
141	0x3c769b0d	0.015051615
142	0x3d19ce17	0.03755006
143	0xbcf1de7a	-0.02952503
144	0xbd0b2c78	-0.033977956
145	0xbb442661	-0.0029930102
146	0x3cda0648	0.026614323
147	0x3dfb9ed8	0.122861564
148	0xbd9a54ca	-0.075357035
149	0x3c693256	0.014233192
150	0xbd51dd69	-0.051236544
151	0xbccbdef0	-0.024886578
152	0xbba3d8eb	-0.005000224
153	0xbdcf13ed	-0.101112224
154	0xbd68c555	-0.056828815
155	0x3caed42f	0.021341411
156	0x3e378aae	0.17923996
157	0xbdb00e4e	-0.085964784
158	0xbd9329db	-0.07185718
159	0xbcd4f2fc	-0.02599477
160	0xbce2a718	-0.027667567
161	0x3d423c43	0.04742075
162	0xbd5993a3	-0.053119313
163	0xbbc58d14	-0.0060287807
164	0xbdc22de7	-0.094814114
165	0x3d21eb0b	0.039530795
166	0xbbc579ba	-0.006026474
167	0x3c93d101	0.018043997
168	0xbdc41993	-0.095751904
169	0x3c441716	0.011968395
170	0x3c0f19be	0.008734165
171	0xbcc487bf	-0.02399051
172	0x3d414a1c	0.047189817
173	0x3d3bc96b	0.045846384
174	0xba5c3a04	-0.0008400979
175	0xbbad8fbe	-0.0052966764
176	0x3cea7259	0.028618978
177	0xbd52ebfe	-0.05149459
178	0x3dd1e71a	0.10249157
179	0x3d846275	0.06464092
180	0x3db1a965	0.086748876
181	0xbb83df78	-0.0040244423
182	0xbd83cf9f	-0.06436085
183	0x3c59bc64	0.013289545
184	0x3e1cbc04	0.15306097
185	0x3d95c63e	0.07313202
186	0x3de816a1	0.11332441
187	0xbcaf5dcc	-0.02140703
188	0x3d542d56	0.05180105
189	0xbae78963	-0.0017664846
190	0xbd16f837	-0.03685781
191	0xbd5d7e6e	-0.05407565
192	0xbd519903	-0.051171314
193	0xbc9f4104	-0.019440182
194	0x3b8e1eda	0.004337174
195	0xbd15639f	-0.03647196
196	0xbd8993d4	-0.06717649
197	0xbd9417c2	-0.07231094
198	0x3cc25d24	0.023726054
199	0x3d06cd24	0.03291048
200	0x3bfe0863	0.0077524646
201	0xbd3ebe51	-0.04656822
202	0x3a7c3b32	0.0009621858
203	0xbde2445d	-0.110481955
204	0x3cb3a2ee	0.021928277
205	0x3cf4c87b	0.029880753
206	0x390e2fd8	0.00013559998
207	0xbdbacde5	-0.091213025
208	0x3d05db9f	0.03268015
209	0x3da7b6c5	0.081891574
210	0x3d650caa	0.05592028
211	0x3db2bc90	0.08727372
212	0x3d70021b	0.058595758
213	0xbd1e2950	-0.038613617
214	0xbd8adfd4	-0.06780973
215	0xbccd2f13	-0.02504686
216	0xbd650b3d	-0.05591892
217	0xbc32f7f8	-0.010923378
218	0xbc8020a3	-0.015640562
219	0x3e419c95	0.18907388
220	0xbd433b73	-0.047664117
221	0xbd25efe7	-0.04051199
222	0xbd4b050b	-0.049565356
223	0xbd317714	-0.043326452
224	0x3cd3fe01	0.025877954
225	0xb94379d8	-0.0001864204
226	0x3dd33701	0.103132255
227	0x3cd62a3d	0.026143188
228	0x3d04922f	0.032365974
229	0xbd9ddf81	-0.077086456
230	0x3c886b96	0.016652863
231	0xbc032f2f	-0.008006855
232	0xbced5875	-0.028972844
233	0xbbb8a786	-0.0056352047
234	0xbd5841f4	-0.052797273
235	0x3c8d3f92	0.017242227
236	0x3d05b285	0.032640953
237	0xbc816271	-0.01579401
238	0x3d6065e3	0.054784667
239	0xbd992d9e	-0.07479404
240	0x3ceb5baf	0.028730242
241	0x3cc670cc	0.024223708
242	0xbb233ef6	-0.0024909354
243	0x3d5eac6c	0.054363653
244	0x3bc3c1fc	0.0059740525
245	0xbe113a2d	-0.14182349
246	0x3d5091e1	0.05092037
247	0xbe097788	-0.13424504
248	0xbd1a99e3	-0.037744414
249	0x3cc4c44f	0.024019388
250	0x3b08fd10	0.002090279
251	0x3e4dacc5	0.20085438
252	0x3c9db462	0.019251052
253	0xbc5d0ba2	-0.013491543
254	0x3ce886be	0.028384563
255	0x3d536e4e	0.051618867

bias f4 [100]
0	0x3a89aab6	0.0010503146
1	0x3dfd0314	0.12354103
2	0x3e06bde2	0.13158372
3	0xbcaee5d8	-0.021349832
4	0x3d9bb56d	0.076029636
5	0x3e51dec4	0.20495135
6	0xbe20236c	-0.15638512
7	0x3d076d50	0.033063233
8	0xbcf08fa3	-0.029365366
9	0x3e8de32b	0.27712378
10	0xbc1a9e4a	-0.009437153
11	0xbe2ea2cc	-0.1705429
12	0xbd53f93b	-0.051751357
13	0xbe1b0525	-0.15138681
14	0xbcee8bc8	-0.029119387
15	0xbdb3506b	-0.08755573
16	0xbdf69f2e	-0.1204208
17	0xbe4e38c2	-0.20138839
18	0xbe9c4b62	-0.30526263
19	0xbeab555e	-0.33463567
20	0x3e131e10	0.14366937
21	0x3d59a11b	0.053132158
22	0x3c85c5e9	0.016329722
23	0xbca0d59c	-0.019633107
24	0xbe1612d8	-0.14655626
25	0xbe29f2f3	-0.16596584
26	0x3df1959f	0.11796116
27	0xbea84e68	-0.3287232
28	0xbc0a0b36	-0.008425524
29	0xbe922a68	-0.28547978
30	0xbd1fc6a4	-0.039007798
31	0x3c88387a	0.016628493
32	0x3da1a8f3	0.07893553
33	0xbe8e8a0b	-0.27839693
34	0xbe87d329	-0.2652829
35	0xbd8826dd	-0.066480376
36	0xbeb43c44	-0.3520223
37	0xbec7264f	-0.38896415
38	0x3e8b29db	0.2718037
39	0x3e998ba1	0.2998934
40	0xbe4f76ad	-0.20260115
41	0xbe77c70a	-0.24197021
42	0xbe93632e	-0.28786606
43	0x3e8e38b9	0.2777765
44	0x3e0ba7bb	0.13638203
45	0xbcf976de	-0.030452188
46	0xbe2311e3	-0.15924792
47	0xbe134016	-0.14379916
48	0x3e410b89	0.18852057
49	0xbe4c3cab	-0.19945018
50	0xbd3c2d4e	-0.045941643
51	0xbe106aaa	-0.14103189
52	0x3d8bea99	0.06831855
53	0xbdced1ef	-0.100986354
54	0xbddfeafb	-0.10933491
55	0x3d27334e	0.040820412
56	0xbd495b34	-0.049159244
57	0x3ce61ea3	0.02809078
58	0x3dfb9e62	0.122860685
59	0xbdc6834c	-0.09693012
60	0x3d9825a7	0.074290566
61	0x3e2c3870	0.16818404
62	0x3dc0959a	0.09403534
63	0x3e955cdf	0.29172418
64	0x3d5222a2	0.05130256
65	0xbe346125	-0.17615183
66	0x3cc98a21	0.024601998
67	0xbd819248	-0.06326729
68	0xbe07091e	-0.13187072
69	0x3da61a66	0.08110504
70	0xbdd3c9d2	-0.103412285
71	0x3e3132ba	0.17304507
72	0x3de878e2	0.113511816
73	0xbe09df19	-0.13464011
74	0x3e02b9af	0.12766145
75	0xbe09bfce	-0.13452074
76	0x3e6a2085	0.22863968
77	0xbd75c70d	-0.060004283
78	0x3f067b34	0.52531743
79	0xbe646ced	-0.22307177
80	0xbe1f732f	-0.15571283
81	0xbb06d04a	-0.0020570927
82	0x3db3dd0c	0.08782396
83	0x3c4ab702	0.012372734
84	0x3e523809	0.20529188
85	0xbe3a06a0	-0.1816659
86	0xbec2335b	-0.37929806
87	0x3c8fa423	0.017534321
88	0x3e7a6f1f	0.24456452
89	0xbd3eae96	-0.046553217
90	0x3eae4c48	0.34042573
91	0xbe692a20	-0.22769976
92	0xbd399695	-0.04530962
93	0x3d041a52	0.032251664
94	0xbe5fc61c	-0.21852916
95	0xbd0f511e	-0.03498947
96	0xbdbe0c24	-0.092796594
97	0x3df6f56a	0.12058528
98	0xbe24a1c9	-0.16077341
99	0x3e249356	0.16071829

weight f4 [50, 100]
0	0xbea48a5e	-0.32136816
1	0xbc3a082a	-0.0113544855
2	0xbe1df85f	-0.15426777
3	0x3c979567	0.018503858
4	0x3caed67d	0.02134251
5	0xbe635417	-0.22200046
6	0x3d3fa775	0.04679056
7	0xbcda110b	-0.026619455
8	0xbe94f4e3	-0.29093084
9	0xbe4e7975	-0.2016352
10	0x3d7f4520	0.062321782
11	0x3d5d25c2	0.053991087
12	0x3eb82756	0.3596751
13	0x3da72589	0.08161456
14	0x3cefb774	0.029262282
15	0x3d6be45b	0.057590824
16	0x3e439ede	0.19103572
17	0x3d975a2c	0.07390246
18	0x3ddac5ae	0.10682236
19	0x3e3112d9	0.17292346
20	0xbc87ae97	-0.016562743
21	0x3d266089	0.040619407
22	0xbc8aeab3	-0.016957616
23	0x3cd118ff	0.025524614
24	0x3d76e7ce	0.06027966
25	0x3d2a3efc	0.041563973
26	0xbdb71f91	-0.08941568
27	0x3dbaca28	0.091205895
28	0xbd459517	-0.048237886
29	0x3dde77f9	0.10862727
30	0xbda88896	-0.08229177
31	0xbe541e16	-0.20714602
32	0xbd974efb	-0.07388111
33	0x3e005fa0	0.12536478
34	0x3e131b74	0.14365941
35	0x3df573af	0.119849555
36	0x3e62dd99	0.22154845
37	0x3dea8eaa	0.11452992
38	0xbdffa46b	-0.12482532
39	0xbda6296e	-0.08113371
40	0x3c91bd67	0.01779051
41	0x3dd34b74	0.10317126
42	0x3da2ecd2	0.07955326
43	0xbe5e8611	-0.2173083
44	0xbe7c516b	-0.24640433
45	0xbd8bb70e	-0.06822024
46	0x3d74a463	0.059727084
47	0x3d2333bd	0.039844263
48	0xbe12ac5a	-0.1432356
49	0x3e8a95d7	0.27067444
50	0x3b807d0b	0.0039211563
51	0x3e961c48	0.29318452
52	0xbdc9f118	-0.09860438
53	0x3db3824d	0.08765087
54	0x3ea1c935	0.3159882
55	0x3cb2d48b	0.021829864
56	0x3cebdac2	0.028790835
57	0xbca4fc99	-0.02013998
58	0xbe8e743e	-0.2782306
59	0x3d289e2f	0.04116648
60	0xbcdbdfe5	-0.02684016
61	0xbdc880f3	-0.0979022
62	0xbc9004ef	-0.017580478
63	0xbdcfad04	-0.10140422
64	0xbe1ce4f9	-0.15321721
65	0x3cc7adc1	0.024374845
66	0xbd9b8c3f	-0.07595109
67	0xbd22322e	-0.039598636
68	0x3c0a9264	0.008457754
69	0xbb8eb4c8	-0.004355047
70	0x3cb0fb62	0.021604244
71	0xbe028b45	-0.1274844
72	0xbd6c6f43	-0.057723295
73	0x3d50e027	0.05099502
74	0xbcf7c6c4	-0.030246146
75	0x3de790f7	0.11306947
76	0xbbff55e1	-0.00779222
77	0x3ddaee4a	0.10689981
78	0xbf089e3e	-0.5336646
79	0x3d95b2bf	0.07309484
80	0x3df71f2b	0.12066492
81	0xbd105ffb	-0.035247784
82	0x3b91d52d	0.0044504614
83	0xbdbab5f4	-0.09116736
84	0xbe520496	-0.20509562
85	0x3d7247e3	0.059150588
86	0x3d4d938a	0.050189532
87	0x3da3131d	0.0796263
88	0xbdf72b84	-0.12068847
89	0xbcc8403c	-0.024444692
90	0xbe9d0fdd	-0.30676165
91	0x3e02aee8	0.12762034
92	0x3a80f9a9	0.000984003
93	0xbd7da099	-0.061920736
94	0x3d84792e	0.06468426
95	0x3d485789	0.048911605
96	0x3d962750	0.07331717
97	0xbd1ecb52	-0.03876812
98	0x3e1e4316	0.15455279
99	0xbe214bcf	-0.15751575
100	0xbd0fcf5c	-0.035109863
101	0xbd3eb56c	-0.046559736
102	0x3e77ca8a	0.24198356
103	0x3d541f0a	0.051787414
104	0xbd4dff4c	-0.0502923
105	0x3c4c20e9	0.012459018
106	0x3df66a6c	0.12032017
107	0xbd402e7b	-0.046919327
108	0xbe8c4c82	-0.2740212
109	0xbdd31e57	-0.10308521
110	0xbdb93250	-0.090427995
111	0xbd16adf4	-0.03678699
112	0x3adcc0f6	0.0016842175
113	0xbd2969c9	-0.04136065
114	0xbd478026	-0.048706196
115	0xbc92c03b	-0.017913928
116	0x3e8f7aa2	0.2802325
117	0x3cc29c3c	0.023756139
118	0x3c1e979e	0.009679703
119	0x3e472464	0.19447476
120	0x3d7e55cb	0.062093537
121	0xbd84716c	-0.06466946
122	0x3d04dfb6	0.03243991
123	0xbd87b038	-0.06625408
124	0xbddc2e11	-0.10750974
125	0xbe219222	-0.15778401
126	0x3a84dca8	0.0010136561
127	0x3dfc5f71	0.123228915
128	0x3d9ba969	0.07600672
129	0x3ddb90a5	0.10720948
130	0x3d6675d0	0.0562647
131	0xbe986ecd	-0.29772034
132	0xba82859e	-0.0009958034
133	0x3dc01663	0.0937927
134	0xbd4b720c	-0.04966931
135	0xbd39a641	-0.045324568
136	0xbc76e22e	-0.015068574
137	0xbe10874d	-0.14114113
138	0x3dbe865e	0.09302972
139	0x3dfc9445	0.12332968
140	0x3d56efb1	0.05247468
141	0x3d75a1b2	0.059968658
142	0xbe0ed37a	-0.1394786
143	0x3cbdc022	0.023162905
144	0x3db7236c	0.08942303
145	0x3dd20d60	0.10256457
146	0x3e0f6b5e	0.14005801
147	0x3c36b56b	0.011151652
148	0xbd5351cf	-0.05159169
149	0xbe2e211a	-0.17004815
150	0x3bd16560	0.0063902587
151	0xbb3780e1	-0.0028000402
152	0xbdf73575	-0.12070743
153	0x3d8d445c	0.06897804
154	0x3da36437	0.07978099
155	0xbd458aa1	-0.04822791
156	0x3dc041ab	0.09387525
157	0xbc6c81d0	-0.014435247
158	0x3e9bf068	0.30456853
159	0x3d5a56b8	0.053305358
160	0xbdbe119f	-0.09280705
161	0x3e47be74	0.19506246
162	0xbd9a681c	-0.075393885
163	0x3e22d42d	0.15901251
164	0xbe179ea8	-0.14806616
165	0x3d80eeb2	0.062955275
166	0x3d96ce88	0.073636115
167	0x3d962ab6	0.07332365
168	0x3d140127	0.03613391
169	0x3c694e83	0.01423991
170	0x3dd35281	0.10318471
171	0xbc623340	-0.013806164
172	0xbcba08f6	-0.022709351
173	0xbdf62e3e	-0.12020539
174	0x3ded9faf	0.11602723
175	0x3ca017b4	0.019542553
176	0xbdab22fe	-0.083562836
177	0x3e41d6ff	0.18929671
178	0xbbbd75d5	-0.005781869
179	0xbb54b676	-0.0032457388
180	0xbc9b7037	-0.018974407
181	0x3d5ffb2c	0.054682896
182	0x3d8cab9f	0.068686716
183	0x3d7dba1b	0.061945062
184	0xbdcd1dae	-0.100154266
185	0xbc313676	-0.010816207
186	0xbdc1f92e	-0.094713554
187	0xbb7de3d9	-0.0038740544
188	0xbdd0994f	-0.10185491
189	0x3d4cf1a7	0.050035145
190	0xbca6320a	-0.020287532
191	0xbd0ef3d9	-0.03490052
192	0xbca721d8	-0.02040188
193	0x3bb3443c	0.0054707807
194	0xbc861ff3	-0.016372656
195	0x3cc9f993	0.02465514
196	0x3be97fb4	0.007125819
197	0xbd238d93	-0.039929938
198	0x3c830707	0.015994562
199	0x3e15108e	0.14557096
200	0xbd23dd3f	-0.04000592
201	0xbd45311d	-0.04814254
202	0xbe5a5966	-0.21323165
203	0x3cdfcc9d	0.027319247
204	0xbd9964b6	-0.07489912
205	0x3e804464	0.25052178
206	0x3defffa6	0.11718683
207	0x3e006a59	0.12540568
208	0x3cfa572c	0.030559145
209	0x3e3f747c	0.18696779
210	0xbd82cbac	-0.063865036
211	0xbd85f9ff	-0.065418236
212	0x3d84e5a7	0.06489115
213	0xbdf25594	-0.11832729
214	0xbc40bbf3	-0.011763561
215	0x3cbe1a46	0.023205888
216	0x3eb2b143	0.34900865
217	0xbc869b2b	-0.016431412
218	0x3d71f138	0.059067935
219	0x3dd7871c	0.10523817
220	0xbd5c3993	-0.053765845
221	0xbd94dd81	-0.07268811
222	0xbd41a70a	-0.04727844
223	0xbd123bf2	-0.0357017
224	0x3d46d16f	0.048539575
225	0x3e344dc9	0.17607798
226	0xbd2b3fac	-0.04180877
227	0x3dcd2aa8	0.10017902
228	0x3daa1c3a	0.08306165
229	0x3d371471	0.04469723
230	0x3d1e2867	0.03861275
231	0xbe896acd	-0.26839295
232	0xbc4c9126	-0.012485778
233	0xbd7dd65f	-0.06197202
234	0x3cc8f44c	0.024530552
235	0xbde1dee0	-0.11028838
236	0x3dbc68a1	0.09199644
237	0x3dcfb274	0.10141459
238	0x3cf89b8c	0.030347608
239	0xbe38b7e0	-0.18038893
240	0x3da73f5f	0.08166384
241	0x3daf9a22	0.085743204
242	0x3e3d39b4	0.18479043
243	0x3c23569b	0.009969379
244	0x3e810483	0.25198755
245	0xbc21c67b	-0.009873982
246	0x3e1e7724	0.15475136
247	0xbd21fad0	-0.039545834
248	0x3cbe4a26	0.023228716
249	0xbe0fad65	-0.14030989
250	0x3c1fb7b8	0.009748392
251	0x3dfd6e2f	0.123745315
252	0xbd0e2bd0	-0.03470975
253	0xbd9ebba3	-0.077506326
254	0xbe856d4d	-0.26059952
255	0xbd5db7cb	-0.054130357

bias f4 [50]
0	0xbea718be	-0.32636064
1	0xbdcc2f20	-0.09969926
2	0xbd3fa00d	-0.046783496
3	0xbd824076	-0.06359951
4	0xbd078ad0	-0.033091366
5	0x3da77b4e	0.081778154
6	0xbd4cfc09	-0.050045047
7	0xbd985c1d	-0.07439444
8	0xbc4a04be	-0.012330232
9	0x3dc7211d	0.09723113
10	0xbc88cb9f	-0.016698657
11	0x3cf52c48	0.029928342
12	0xbbbd7dac	-0.0057828035
13	0x3c6b7ca7	0.014372981
14	0x3aa1acd4	0.0012334832
15	0x3cc2e406	0.02379037
16	0x3dab8bc0	0.083762646
17	0xbb73837a	-0.0037157224
18	0x3d5cacee	0.053875856
19	0x3b69fe22	0.0035704453
20	0x3bf54152	0.0074845934
21	0xbd2a70a1	-0.041611318
22	0xbb03644f	-0.0020048802
23	0xbcb180da	-0.021667887
24	0x3c04dc9c	0.008109238
25	0xbccb783c	-0.024837606
26	0xbdae9788	-0.08524996
27	0x3c37064c	0.011170935
28	0xbd281382	-0.04103423
29	0x3d78cf69	0.060744677
30	0x3db7dcfd	0.08977697
31	0xbd26dc1e	-0.040737264
32	0x3d4e2fba	0.050338484
33	0x3dc713ee	0.09720598
34	0x3d64e71a	0.055884458
35	0x3cb97ccc	0.022642516
36	0x3dde141e	0.10843681
37	0x3c84688d	0.016163135
38	0xbc9dddfb	-0.019270888
39	0x3cc68e85	0.02423788
40	0x3d87c76a	0.06629832
41	0x3d38743b	0.04503272
42	0xbd55dd41	-0.052212957
43	0x3d0eb670	0.034841955
44	0xbd722a92	-0.05912263
45	0x3d6a31e2	0.05717648
46	0x3d68754d	0.05675249
47	0xbda02748	-0.07819992
48	0xbd119d25	-0.035550255
49	0x3cbe70d0	0.023247153
