low_rank_MPLN/mytest/model/mytest_123.pth (torch, 97324 bytes, 7 tensors)

a f4 [50]
2.0214064 2.012382 1.7455167 1.6220869 1.1411018 1.0315853 0.81125176 0.5955733
0.3172286 0.20935158 0.04109758 -0.22736889 -0.39084727 -0.37910286 -0.64312226 -0.81978375
-0.84738594 -0.8829722 -0.8230129 -0.8556305 -1.1332989 -1.6153228 -1.6752869 -1.3414571
-1.4537812 -1.4233004 -1.5561563 -1.9644487 -1.6601819 -1.8204527 -1.3991168 -1.4698123
-1.8797237 -1.9253764 -2.0771587 -1.9585283 -1.9937983 -2.4865015 -2.0705245 -2.4504383
-1.8644687 -2.004722 -1.9760379 -2.4803517 -2.8345401 -2.6822352 -2.1153412 -1.9635282
-2.1716356 -2.0873868
00000000: b95e 0140 deca 0040 176d df3f 8ba0 cf3f
00000010: a00f 923f fd0a 843f 32ae 4f3f 7e77 183f
00000020: c96b a23e 4360 563e f055 283d 64d3 68be
00000030: 221d c8be c519 c2be a9a3 24bf 59dd 51bf
00000040: 49ee 58bf 770a 62bf f9b0 52bf 9a0a 5bbf
00000050: f00f 91bf e6c2 cebf cd6f d6bf deb4 abbf
00000060: 8115 babf b52e b6bf 2130 c7bf 0e73 fbbf
00000070: d780 d4bf 9804 e9bf 4216 b3bf cf22 bcbf
00000080: c99a f0bf bc72 f6bf 2bf0 04c0 0eb1 fabf
00000090: c834 ffbf d722 1fc0 7983 04c0 fbd3 1cc0
000000a0: e9a6 eebf 5e4d 00c0 cfee fcbf 15be 1ec0
000000b0: 1b69 35c0 bea9 2bc0 c061 07c0 e454 fbbf
000000c0: 14fc 0ac0 bf97 05c0

weight f4 [100, 50]
0.03001666 0.12659769 -0.03560171 -0.020716384 -0.021664452 -0.003881542 0.0074489424 -0.024946252
-0.008154976 0.06973995 0.03934588 -0.03558777 0.0015378338 -0.0018581903 0.025547378 -0.0074000726
-0.005455464 0.0070627066 -0.009413122 -0.022572294 -0.006167986 -0.04753223 0.27193162 0.29763463
-0.054353524 0.01036989 0.004736036 -0.012293134 0.0037918026 -0.04110138 0.053669486 -0.030977922
0.0064703273 -0.015381604 0.10533571 0.028312523 -0.0052185412 0.12899683 -0.020602483 -0.03844422
0.0009472907 0.033971094 -0.016632482 -0.009800141 -0.002387832 0.009369139 -0.0038454393 -0.0134231085
0.0039413357 -0.0068004867 -0.0032473698 0.019259242 -0.019930666 -0.021555206 0.026137792 -0.006776847
-0.01892102 0.014446837 -0.008874823 0.013393148 -0.031212697 0.004341801 0.012919186 0.048901092
-0.02903752 -0.0071922657 -0.030831458 0.09272066 0.14042999 0.021998724 -0.0681165 0.026689423
0.004738961 0.015725302 -0.030738238 0.014742711 0.033272132 -0.0022549673 -0.017482461 0.02084472
-0.0053009167 -0.022900576 0.0050464403 -0.0455781 0.1521545 0.027750771 0.11406102 -0.04386317
0.0033809475 -0.022251619 0.021309715 -0.005518508 -0.021752583 0.04835636 -0.1052928 0.18554822
0.15244736 -0.002358462 0.009797445 0.14002651 0.0059332633 -0.054978784 0.09133065 0.0032196194
-0.037987128 0.026138155 -0.036226235 0.17640969 -0.02719083 -0.02770737 -0.01389197 -0.028204666
0.011427412 -0.018151842 0.24068555 -0.04011754 -0.039927557 -0.0074414164 0.01801916 0.014969619
-0.019356783 0.027413337 0.03546761 -0.028930109 -0.02217566 -0.022188911 0.094633035 -0.062388007
0.0642218 0.08321092 -0.04297666 -0.036908083 0.0789893 -0.029439293 -0.023051968 0.05753651
-0.019476328 0.12857755 -0.02639297 -0.06443316 0.20889942 -0.07689243 0.04166968 -0.00079170865
-0.004469021 -0.022153148 0.0037589571 0.008679998 0.0042765266 -0.032299906 -0.005824278 -0.015381004
0.3871966 -0.005668034 -0.036457628 -0.0044430103 -0.033313412 -0.0044152304 0.07897992 -0.04193858
0.022696635 0.027733494 -0.015134055 -0.003950065 0.005577431 -0.028604912 -0.018606015 0.09503223
0.048715845 0.01501349 -0.04837211 0.029874744 0.03367629 -0.009978742 -0.015334755 -0.01761314
-0.008808356 0.18870096 -0.034419686 0.004252955 -0.020308256 0.004418325 -0.017338278 -0.0082073705
0.14869055 -0.024033839 -0.031278536 -0.025317863 0.010935222 0.035599727 -0.026789112 -0.016538855
-0.0056180465 0.024843896 0.022500264 -0.0005982904 -0.023322536 -0.0026306962 0.007032995 0.0003272403
-0.012547619 -0.04417399 -0.0028602197 0.45857975 0.028204575 -0.038663916 -0.035681613 0.08086101
-0.028072825 0.016664922 -0.021736713 0.011220664 -0.0054369383 0.022798872 -0.009176382 -0.022958346
0.011566259 -0.012743186 0.03172647 0.005149939 -0.0150563875 -0.024492778 0.096602716 0.039507307
0.0071190596 0.007359525 -0.012603067 -0.007855946 -0.005344157 0.006774515 -0.011230082 -0.003187842
0.0009809886 0.005145036 -0.02978841 0.020049399 7.601344e-05 -0.030124418 0.015553602 -0.006218015
-0.008180849 0.1649864 -0.031724956 0.011037355 -0.023136232 0.009483069 0.021159116 0.016139457
-0.012999295 -0.011703232 -0.008989469 0.15925984 0.0017815187 0.037329614 -0.028603133 0.01051766
00000000: 80e5 f53c d3a2 013e 19d3 11bd 68b5 a9bc
00000010: a679 b1bc 7861 7ebb 4216 f43b 155c ccbc
00000020: 739c 05bc d2d3 8e3d 2529 213d 7bc4 11bd
00000030: 2491 c93a 858e f3ba bc48 d13c 4f7c f2bb
00000040: c0c3 b2bb 476e e73b 7f39 1abc 88e9 b8bc
00000050: d11c cabb 28b1 42bd 9f3a 8b3e 9163 983e
00000060: cda1 5ebd 79e6 293c c030 9b3b 2469 49bc
00000070: e47f 783b ec59 28bd 89d4 5b3d 69c5 fdbc
00000080: 0a05 d43b 2003 7cbc 40ba d73d aaef e73c
00000090: 4c00 abbb bf17 043e 8ac6 a8bc b077 1dbd
000000a0: 9a53 783a 4625 0b3d d840 88bc c590 20bc
000000b0: 2c7d 1cbb 0481 193c c403 7cbb 99ec 5bbc
000000c0: 5226 813b 9ed6 debb d3d1 54bb 8fc5 9d3c
000000d0: a345 a3bc 8b94 b0bc ec1e d63c 5010 debb
000000e0: 4100 9bbc 6db2 6c3c b567 11bc ef6e 5b3c
000000f0: c5b1 ffbc ab45 8e3b feaa 533c 834c 483d
00000100: 18e0 edbc 19ad ebbb 4192 fcbc 54e4 bd3d
00000110: e1cc 0f3e ab36 b43c aa80 8bbd c7a3 da3c
00000120: 4949 9b3b 59d2 803c c2ce fbbc 698b 713c
00000130: 5c48 083d 13c8 13bb 6137 8fbc 8cc2 aa3c
00000140: 50b3 adbb fd99 bbbc 9c5c a53b 1ab0 3abd
00000150: 64ce 1b3e 9655 e33c d398 e93d dea9 33bd
00000160: e392 5d3b 0749 b6bc b691 ae3c 9ad4 b4bb
00000170: 7932 b2bc 5211 463d c0a3 d7bd 5a00 3e3e
00000180: 291b 1c3e 6d90 1abb 7685 203c 1c63 0f3e
00000190: d26b c23b 6f31 61bd 900b bb3d 4000 533b
000001a0: 6498 1bbd af1f d63c f661 14bd bea4 343e
000001b0: 4ebf debc 91fa e2bc 259b 63bc 790d e7bc
000001c0: 0a3a 3b3c 2cb3 94bc 4676 763e 4a52 24bd
000001d0: 148b 23bd 20d7 f3bb eb9c 933c 2243 753c
000001e0: 1e92 9ebc ef91 e03c 7c46 113d d6fe ecbc
000001f0: bba9 b5bc 85c5 b5bc f7ce c13d 918a 7fbd
00000200: b886 833d 7d6a aa3d 4b08 30bd ee2c 17bd
00000210: 24c5 a13d ac2a f1bc 7bd7 bcbc 67ab 6b3d
00000220: d28c 9fbc d5a9 033e 1236 d8bc 88f5 83bd
00000230: bbe9 553e c779 9dbd d4ad 2a3d ab8a 4fba
00000240: de70 92bb 857a b5bc d658 763b 8d36 0e3c
00000250: 1b22 8c3b e84c 04bd 96d9 bebb 9b00 7cbc
00000260: a23e c63e eaba b9bb 9854 15bd ac96 91bb
00000270: a573 08bd a3ad 90bb 39c0 a13d cac7 2bbd
00000280: 4bee b93c 5a31 e33c d4f4 77bc 8c6f 81bb
00000290: e2c2 b63b d954 eabc a46b 98bc 42a0 c23d
000002a0: 448a 473d 24fb 753c d521 46bd e1bb f43c
000002b0: 26f0 093d e17d 23bc a03e 7bbc 6f49 90bc
000002c0: ec50 10bc d33a 413e a8fb 0cbd 5f5c 8b3b
000002d0: 805d a6bc 99c7 903b 0109 8ebc 3578 06bc
000002e0: 5642 183e 9de2 c4bc ec1d 00bd 6867 cfbc
000002f0: a529 333c 05d1 113d d774 dbbc 7e7c 87bc
00000300: 9717 b8bb 6d85 cb3c 7952 b83c 97d6 1cba
00000310: e70e bfbc c267 2cbb 0a75 e63b 7391 ab39
00000320: 8794 4dbc c9ef 34bd 8672 3bbb f7ca ea3e
00000330: 480d e73c 0e5e 1ebd e226 12bd 759a a53d
00000340: fbf8 e5bc e084 883c 3111 b2bc e0d6 373c
00000350: 5828 b2bb b3c4 ba3c 8958 16bc 2413 bcbc
00000360: 6880 3d3c ccc8 50bc 9df3 013d d2c0 a83b
00000370: 11af 76bc 14a5 c8bc a5d7 c53d 6ad2 213d
00000380: 0047 e93b 2c28 f13b 187d 4ebc 3ab6 00bc
00000390: 0a1e afbb c0fc dd3b 61fe 37bc 1deb 50bb
000003a0: 8494 803a b197 a83b d306 f4bc a33e a43c
000003b0: 6869 9f38 7cc7 f6bc 89d4 7e3c 7ec0 cbbb
000003c0: f808 06bc 32f2 283e 07f2 01bd 06d6 343c
000003d0: 3288 bdbc e05e 1b3c e255 ad3c e536 843c
000003e0: fffa 54bc eabe 3fbc 9148 13bc 0315 233e
000003f0: d981 e93a f0e6 183d 1e51 eabc 4352 2c3c

bias f4 [100]
0.27043343 0.0921268 0.3245679 0.19573802 0.23999952 0.16997617 0.23450556 1.0611159
0.16246276 0.187682 1.1162932 0.45526925 0.78555274 1.1223733 0.072589636 0.10658205
0.2258298 0.29469 0.07615673 0.2737667 0.26407814 1.0270294 0.7412068 1.1437364
0.20939687 0.028769223 0.026739381 1.0805608 0.050569482 0.06426511 0.2452248 1.1037594
0.18032524 -0.07262806 -0.28945974 -0.21875434 0.2212106 -0.030298427 0.18398333 0.677258
0.13628091 0.26383352 0.16912693 0.21109644 0.22256628 0.8277234 0.23277043 0.14596981
-0.27801213 0.05932222 -0.16164495 0.16518065 0.250833 0.54875934 0.1502649 0.1960094
0.15084736 0.101338975 0.19890703 0.5137849 0.1679158 0.17140268 0.039474346 0.14921568
0.17920528 0.1612618 0.12655278 0.26777744 0.24829558 0.098488726 0.57354593 0.6746013
-0.2150895 0.58863544 -0.08228579 0.20278257 1.0410459 0.07572041 0.3103488 0.19081463
0.87660253 1.117958 0.24540763 0.24711479 0.968358 1.0483081 0.18880673 0.26101476
0.40613875 0.20656916 0.18155324 0.15269858 0.4277192 0.13097243 0.18955564 0.19134767
0.17174827 0.62993807 1.0097753 0.33632892
00000000: 4076 8a3e faac bc3d c42d a63e 8c6f 483e
00000010: 6fc2 753e 3c0e 2e3e 3a22 703e a5d2 873f
00000020: a35c 263e b62f 403e b2e2 8e3f 0d19 e93e
00000030: fc19 493f eea9 8f3f e0a9 943d b147 da3d
00000040: ed3f 673e 9ce1 963e 0ff8 9b3d 262b 8c3e
00000050: 4035 873e b375 833f bbbf 3d3f f465 923f
00000060: 226c 563e 6fad eb3c 8c0c db3c d14f 8a3f
00000070: f221 4f3d 6d9d 833d 361c 7b3e fd47 8d3f
00000080: 2ea7 383e 05be 94bd 1134 94be 2301 60be
00000090: 0885 623e 6834 f8bc 2066 3c3e c860 2d3f
000000a0: 398d 0b3e 3015 873e 9c2f 2d3e aa29 583e
000000b0: 6ae8 633e aee5 533f 5f5b 6e3e 1c79 153e
000000c0: 9b57 8ebe dbfb 723d 4186 25be 1e25 293e
000000d0: 2f6d 803e 7e7b 0c3f 0bdf 193e b0b6 483e
000000e0: bb77 1a3e cf8a cf3d 49ae 4b3e 6887 033f
000000f0: 1ff2 2b3e 2f84 2f3e daaf 213d ffcb 183e
00000100: 9781 373e d021 253e 0d97 013e 201a 893e
00000110: 3241 7e3e 75b4 c93d e8d3 123f acb2 2c3f
00000120: 6c40 5cbe d0b0 163f 7485 a8bd 3ca6 4f3e
00000130: fe40 853f 4d13 9b3d 0ae6 9e3e e964 433e
00000140: 0669 603f 3f19 8f3f 234c 7b3e a90b 7d3e
00000150: 4fe6 773f f62e 863f 8d56 413e baa3 853e
00000160: 6bf1 cf3e de86 533e 18e9 393e 045d 1c3e
00000170: 03fe da3e a31d 063e e01a 423e a5f0 433e
00000180: c7de 2f3e 9f43 213f 5140 813f 4e33 ac3e

weight f4 [100, 100]
0.3683664 -0.04261003 -0.078591935 -0.000428929 0.052604392 -0.046242367 -0.028931387 -0.15599988
0.0011108356 -0.009253638 0.00298489 -0.0049739913 0.0032289766 0.020584911 -0.019234832 -0.075106785
0.0073143137 0.02563319 -0.14043933 0.07184185 -0.04794065 -0.008005875 -0.0032942053 -0.020044988
0.0342215 -0.12075898 -0.0130508635 -0.2020704 0.008004323 -0.05282121 0.18614581 -0.75223327
0.0015462621 -0.03185919 -0.06816856 0.11354642 -0.056783617 -0.018495131 0.019150808 -0.0022148984
-0.027813507 0.13363352 -0.035058852 0.0124059245 -0.07953407 0.00023767506 -0.03346745 0.03523798
-0.08713707 -0.019359091 -0.02383519 -0.09558433 0.15205391 0.00051296956 -0.0046440503 -0.027812794
0.011520032 -0.018860029 -0.0015456394 -0.0063642734 -0.07035528 0.008110723 -0.049261276 -0.04721582
0.07098845 0.043006293 0.027695935 0.19463363 -0.062282674 -0.07773514 0.00571491 0.011342294
-0.0688227 -0.02138538 0.035869338 -0.047009744 -0.019755611 -0.04312884 -0.041246295 -0.0055381996
0.0107442085 -0.015374897 -0.0022872689 -0.0033139403 -0.03736901 -0.0022657323 -0.015077841 -0.067812234
-0.025840051 0.0105350595 -0.0009926537 0.30829895 -0.0059766956 -0.016827233 0.0029619467 0.043773506
0.015040235 -0.008684252 -0.010910281 -0.0037454565 0.027926236 -0.047523633 0.1284303 -0.14354177
-0.097749636 0.055689566 0.11036536 -0.0007681828 -0.028486341 -0.020130087 0.038129315 0.038469084
-0.042241078 0.07266481 -0.009853582 -0.0718376 -0.08870685 -0.17312281 -0.0027368409 -0.06579258
-0.05309942 -0.022857288 -0.037645474 -0.010176394 -0.037198238 0.072770044 -0.017420324 -0.012431151
0.072555766 -0.04932546 0.049393773 0.04544565 -0.023772549 0.029229991 0.097757876 0.03813117
0.08454491 -0.010439837 0.11250944 0.0008027988 -0.0039049373 0.043648142 -0.02934308 0.087549314
0.026690211 0.04709192 -0.11584369 -0.047078907 -0.019936278 0.009681268 0.11547589 0.008859028
-0.004713823 0.052742086 0.007476981 0.14997093 -0.052939948 -0.046281774 -0.13192219 0.010473219
0.017611768 -0.017510934 0.055817667 0.035382174 -0.01204227 -0.005144121 0.015211177 -0.069069356
0.042927977 -0.081800096 -0.0148360245 0.006729891 -0.03142272 -0.061840065 0.018572183 -0.02479205
-0.041407272 0.0064431927 -0.05827264 -0.13965426 0.006514105 0.0056670685 -0.034207966 0.006674304
-0.008217528 -0.021211244 0.14906007 0.07273369 -0.03131864 -0.044821836 -0.047444478 0.04624198
0.014695913 0.033788435 -0.05551388 0.093766674 0.032898866 0.0011947865 0.035360094 0.045981526
0.06927516 0.0639202 0.21103676 -0.02035738 0.06313587 0.025224034 0.04378787 0.0061654407
-0.03929241 0.056123227 -0.01300977 0.08093802 0.014234488 -0.0072629163 -0.08026977 -0.23098671
0.08789215 0.04729807 -0.00019544351 0.051945344 -0.18379141 -0.020376397 0.016195696 0.02456381
0.027623681 -0.111269616 0.07526092 0.0098791635 0.02807799 -0.10008264 -0.030671267 0.12585883
0.010518625 0.03048627 0.0427019 -0.11299829 0.062669575 0.0015248554 0.018120507 0.05080061
-0.025890844 -0.1367372 0.020074429 -0.123765156 -0.016377363 -0.038459405 -0.015876789 0.08093783
-0.10473766 -0.111446425 0.012843154 -0.031461984 0.001528655 0.014693504 -0.03802808 -0.018468061
00000000: 859a bc3e db87 2ebd cff4 a0bd e0e1 e0b9
00000010: b477 573d a368 3dbd 8401 edbc 6fbe 1fbe
00000020: 7599 913a 929c 17bc 259e 433b ddfc a2bb
00000030: 3d9d 533b b0a1 a83c 5e92 9dbc 96d1 99bd
00000040: e9ac ef3b b2fc d13c 54cf 0fbe d221 933d
00000050: 6a5d 44bd 132b 03bc 98e3 57bb 6335 a4bc
00000060: d82b 0c3d 7c50 f7bd 4ad3 55bc 8beb 4ebe
00000070: 9024 033c 0e5b 58bd 029d 3e3e 5c92 40bf
00000080: f2ab ca3a c87e 02bd f59b 8bbd 078b e83d
00000090: f095 68bd 1a83 97bc 28e2 9c3c d427 11bb
000000a0: 27d9 e3bc 3ad7 083e df99 0fbd 3842 4b3c
000000b0: c2e2 a2bd 6a38 7939 2a15 09bd b355 103d
000000c0: ec74 b2bd f596 9ebc 0442 c3bc b8c1 c3bd
000000d0: 05b4 1b3e ce78 063a 1e2d 98bb a8d7 e3bc
000000e0: 84be 3c3c 5980 9abc 0d97 caba 658b d0bb
000000f0: 6e16 90bd d7e2 043c 31c6 49bd 6065 41bd
00000100: 6462 913d 5e27 303d 96e2 e23c 0a4e 473e
00000110: 1e1c 7fbd 9a33 9fbd 2444 bb3b 07d5 393c
00000120: eaf2 8cbd 6430 afbc baeb 123d 4a8d 40bd
00000130: 85d6 a1bc dea7 30bd e0f1 28bd c979 b5bb
00000140: 7a08 303c fee6 7bbc 01e6 15bb b12e 59bb
00000150: 3f10 19bd ae7c 14bb 0c09 77bc 24e1 8abd
00000160: 84ae d3bc 3e9b 2c3c ee1b 82ba 5cd9 9d3e
00000170: 28d8 c3bb 44d9 89bc 381d 423b d94b 333d
00000180: 516b 763c 6548 0ebc 09c1 32bc 5576 75bb
00000190: 90c5 e43c 24a8 42bd 3c83 033e 9dfc 12be
000001a0: f630 c8bd be1a 643d 3c07 e23d e05f 49ba
000001b0: 305c e9bc dae7 a4bc 7c2d 1c3d c291 1d3d
000001c0: fb04 2dbd 4ad1 943d eb70 21bc 971f 93bd
000001d0: f0ab b5bd 1b47 31be 925c 33bb 43be 86bd
000001e0: c77e 59bd 353f bbbc 2432 1abd e4ba 26bc
000001f0: 2e5d 18bd 7608 953d 11b5 8ebc 07ac 4bbc
00000200: 1e98 943d 7e09 4abd 2051 4a3d 3825 3a3d
00000210: a6be c2bc bc73 ef3c 4835 c83d 6e2f 1c3d
00000220: e225 ad3d da0b 2bbc 596b e63d ea72 523a
00000230: fae9 7fbb 65c8 323d e660 f0bc 0e4d b33d
00000240: 6ea5 da3c 75e3 403d 753f edbd d0d5 40bd
00000250: 6851 a3bc 2e9e 1e3c a07e ec3d 7525 113c
00000260: 6a76 9abb 1608 583d 7601 f53b fb91 193e
00000270: 8fd7 58bd f591 3dbd 9c16 07be dd97 2b3c
00000280: 8e46 903c 1773 8fbc 11a1 643d e6ec 103d
00000290: f14c 45bc 0490 a8bb 4d38 793c 3c74 8dbd
000002a0: 3fd5 2f3d cf86 a7bd cc12 73bc 6b86 dc3b
000002b0: 1cb5 00bd 024c 7dbd b124 983c b218 cbbc
000002c0: ac9a 29bd 6b21 d33b 4baf 6ebd 8701 0fbe
000002d0: 4674 d53b d1b2 b93b a71d 0cbd 1fb4 da3b
000002e0: d0a2 06bc 34c3 adbc 34a3 183e 67f5 943d
000002f0: f947 00bd 1a97 37bd 2455 42bd 3b68 3d3d
00000300: 20c7 703c be65 0a3d 8662 63bd be08 c03d
00000310: f6c0 063d 629a 9c3a bfd5 103d 2057 3c3d
00000320: 23e0 8d3d 98e8 823d 051a 583e 85c4 a6bc
00000330: 614d 813d a2a2 ce3c e95a 333d 7707 ca3b
00000340: 14f1 20bd 78e1 653d ee26 55bc d5c2 a53d
00000350: c537 693c c2fd edbb 7a64 a4bd c887 6cbe
00000360: cd00 b43d 9fbb 413d f8ef 4cb9 a4c4 543d
00000370: d133 3cbe 67ec a6bc d6ac 843c 0b3a c93c
00000380: 0f4b e23c 53e1 e3bd 6622 9a3d 37dc 213c
00000390: d003 e63c 21f8 ccbd 4f42 fbbc 23e1 003e
000003a0: 5056 2c3c 58be f93c 30e8 2e3d a66b e7bd
000003b0: e858 803d a8dd c73a 7571 943c 4d14 503d
000003c0: 0919 d4bc d604 0cbe 2173 a43c 9678 fdbd
000003d0: d229 86bc 9c87 1dbd 0a10 82bc bcc2 a53d
000003e0: b380 d6bd 063e e4bd 186c 523c 48de 00bd
000003f0: 265d c83a 06bd 703c 55c3 1bbd 554a 97bc

bias f4 [100]
-0.2830025 0.2186656 0.091476515 -0.1597734 0.058609188 -0.08718619 0.5610964 0.22700183
-0.10845605 -0.24467896 -0.15813449 -0.2219333 -0.20648411 -0.10799575 -0.1384256 0.17565279
-0.15311831 0.04491293 -0.31088722 -0.015690003 -0.0077759395 0.43897894 -0.096491046 -0.11607696
-0.45182112 0.17734204 -0.090163074 0.008036285 -0.2663129 0.12598649 -0.26013717 0.03702148
-0.22730063 0.46610215 0.011890369 -0.13455002 -0.1542738 -0.3315522 -0.0179438 -0.19918112
0.5389067 0.12225471 -0.35348874 -0.21622455 -0.31375933 -0.09100085 -0.17082824 -0.15366952
0.23798327 0.09273851 -0.15664533 0.052403957 -0.31639156 -0.32481202 0.037912555 0.007779342
-0.17478693 -0.36760718 0.386558 0.13240945 -0.42294583 0.22824483 -0.39106327 -0.23171206
-0.25150517 -0.16344178 0.37793568 0.19884361 -0.10024662 0.060063787 -0.20297101 0.24691164
0.014135944 0.2089949 0.29327336 0.26011622 0.25535685 -0.3790613 0.2636763 0.3028672
0.26649863 0.12620075 0.18456139 -0.12505595 0.25681683 0.050298084 -0.19827113 0.47514755
-0.19553167 -0.06342988 -0.26843137 -0.12916835 -0.17344128 0.17879683 0.20642386 0.22806855
0.45334882 0.4473851 0.13575491 0.30527133
00000000: b4e5 90be e0e9 5f3e 0a58 bb3d a39b 23be
00000010: 3010 703d ac8e b2bd 03a4 0f3f 2b73 683e
00000020: 351e debd 1f8d 7abe 02ee 21be 7c42 63be
00000030: 9270 53be e02c ddbd 71bf 0dbe 53de 333e
00000040: 0ccb 1cbe 9ff6 373d 9c2c 9fbe 5288 80bc
00000050: 4fcd febb d9c1 e03e 199d c5bd c2b9 edbd
00000060: 1955 e7be 2799 353e 6ba7 b8bd 9faa 033c
00000070: 2a5a 88be 9a02 013e b330 85be d6a3 173d
00000080: 7fc1 68be f1a4 ee3e d2cf 423c 7bc7 09be
00000090: f3f9 1dbe 36c1 a9be e0fe 92bc 23f6 4bbe
000000a0: caf5 093f ad60 fa3d 7afc b4be f869 5dbe
000000b0: 10a5 a0be a75e babd 99ed 2ebe 8b5b 1dbe
000000c0: e3b1 733e b0ed bd3d a267 20be 88a5 563d
000000d0: 13fe a1be c34d a6be 324a 1b3d dae9 fe3b
000000e0: 58fb 32be 0237 bcbe eeea c53e 5896 073e
000000f0: 5b8c d8be 03b9 693e 7239 c8be ed45 6dbe
00000100: 49c5 80be 485d 27be c980 c13e a99d 4b3e
00000110: 1a4e cdbd 7205 763d a2d7 4fbe 68d6 7c3e
00000120: 729a 673c c202 563e ed27 963e f42d 853e
00000130: 22be 823e 5314 c2be 9400 873e 6911 9b3e
00000140: 8272 883e c53a 013e a9fd 3c3e ab0e 00be
00000150: 7f7d 833e 5d05 4e3d 9607 4bbe 8a46 f33e
00000160: 7439 48be 86e7 81bd d66f 89be b544 04be
00000170: 979a 31be 8416 373e c760 533e cd8a 693e
00000180: 561d e83e a90f e53e 5603 0b3e 864c 9c3e

weight f4 [50, 100]
0.30577236 -0.10604491 0.005243057 0.026413968 -0.05953544 0.06866534 -0.24544244 -0.054242942
0.34333128 0.112361446 0.08630045 0.0658254 0.028289387 0.05152414 0.12143355 -0.11635212
0.085323915 -0.006908139 0.27820033 0.02787015 0.013058634 -0.23931362 0.031528346 -0.037253868
0.19681366 -0.07734372 0.02756769 0.015141939 0.120568916 -0.048839744 0.088754155 0.03871378
0.032696836 -0.2356167 0.019123396 -0.013450537 -0.005984523 0.05120869 -0.029190792 0.05937562
-0.23365825 -0.014187038 0.21431284 0.11626985 0.085259184 0.008537957 0.04953721 0.2698986
-0.094035566 -0.04455841 0.24195147 -0.0072181956 0.08444932 0.15161024 -0.20882818 0.010918769
0.10705209 0.064463615 -0.05932851 -0.012378572 0.06644873 -0.09491329 0.15080063 0.037813872
0.040891446 0.35651577 -0.13730238 -0.0528071 -0.00091380475 -0.016743254 0.07104007 -0.15425357
0.013366269 -0.08703394 -0.035204384 -0.13126531 -0.16865358 0.03980907 -0.06008093 -0.09076565
-0.022034418 -0.013331505 -0.011608745 -0.008345308 -0.1074181 -0.02158019 0.087270565 -0.32657441
0.07134614 -0.003880543 0.131125 0.022370799 0.05059819 -0.18114933 -0.0048550284 -0.022959413
-0.123789094 -0.20327294 -0.037741482 -0.014718495 0.053392887 -0.0030939202 0.049786296 0.10131344
0.016372219 -0.04915633 -0.10246364 0.15748683 0.20242774 -0.026294904 0.013624492 0.114489086
0.08514627 -0.0070994757 0.18615746 -0.06637969 -0.023797164 -0.037367035 -0.36090663 0.00908062
0.0767416 0.064170636 -0.041980535 0.043024626 0.07884229 -0.07936317 0.00188209 -0.049555376
-0.03728559 -0.08515422 0.09167576 -0.016645603 0.043300737 0.11713504 -0.060633402 -0.017199824
-0.061865512 0.032297272 -0.00034241576 -0.009544631 0.0012372421 -0.016780134 -0.22769833 0.030385744
-0.16896892 -0.008938295 0.13117078 0.2907892 -0.023073291 0.041792464 0.28811944 -0.0062068235
0.002365836 0.047212996 -0.075185835 -0.08190912 -0.09190991 -0.15946952 0.12325247 -0.044380017
-0.08753593 -0.051871717 -0.017150946 0.053669777 -0.08721628 -0.195869 -0.118366405 0.05635188
-0.000749666 0.052895173 -0.06808861 -0.028535638 0.008137251 -0.019246493 0.03968185 -0.010574647
0.15874413 -0.07761334 -0.027950075 -0.17633238 0.07447521 -0.024806231 -0.11637163 0.06703309
0.033969082 -0.01932078 0.056833122 -0.07814399 0.14770189 0.07461883 -0.030520312 -0.076858744
0.0479344 -0.058149062 0.08335249 -0.072859794 0.11877735 -0.14263545 0.065692656 -0.01158601
-0.27589428 -0.029332401 0.05973826 0.1334739 -0.047815718 0.0011550005 -0.023338296 -0.15849969
-0.20310329 0.027575422 0.10904336 -0.006375053 0.10380058 0.045410782 0.21028402 0.08465006
-0.029218672 0.084826104 0.32996574 0.014439093 0.061962303 0.14106053 -0.051249098 0.06410866
0.06878989 0.027951406 -0.007401438 -0.07305955 0.10089027 0.019805718 -0.00790743 0.04221982
0.016995445 -0.031433128 -0.024805726 0.047855843 0.060917553 0.010784993 0.052025337 -0.030798497
-0.1255888 -0.04166123 0.07961218 0.04649475 0.24652678 0.07523095 0.08482683 0.10491091
-0.033287104 -0.060955144 0.27881697 -0.0899056 0.12381038 -0.17416233 0.041599523 0.012025518
00000000: 328e 9c3e 132e d9bd f3cd ab3b 1b62 d83c
00000010: 6fdb 73bd 6aa0 8c3d 4355 7bbe d92d 5ebd
00000020: 1ec9 af3e c21d e63d 4abe b03d 78cf 863d
00000030: 25bf e73c fa0a 533d 27b2 f83d 054a eebd
00000040: 4ebe ae3d ac5d e2bb 4670 8e3e f14f e43c
00000050: e1f3 553c a10e 75be de23 013d 8397 18bd
00000060: 8589 493e 6266 9ebd a3d5 e13c e515 783c
00000070: d6ec f63d 2f0c 48bd bdc4 b53d 5792 1e3d
00000080: 1eed 053d 8145 71be aba8 9c3c a45f 5cbc
00000090: d119 c4bb 34c0 513d 8721 efbc da33 733d
000000a0: 1c44 6fbe c070 68bc d374 5b3e e31e ee3d
000000b0: 5e9c ae3d cae2 0b3c 88e7 4a3d 2630 8a3e
000000c0: b895 c0bd e182 36bd 20c2 773e 9d86 ecbb
000000d0: c4f3 ac3d b73f 1b3e 0ed7 55be a3e4 323c
000000e0: 203e db3d 8005 843d 7402 73bd 7ecf 4abc
000000f0: 4616 883d e661 c2bd 7b6b 1a3e b8e2 1a3d
00000100: ca7d 273d 3c89 b63e ff98 0cbe 424c 58bd
00000110: 668c 6fba 2629 89bc 757d 913d a6f4 1dbe
00000120: 32fe 5a3c da3e b2bd 7932 10bd 6a6a 06be
00000130: 86b3 2cbe d60e 233d 6c17 76bd 57e3 b9bd
00000140: 8681 b4bc 626c 5abc 9b32 3ebc c2ba 08bc
00000150: 05fe dbbd f0c8 b0bc e9ba b23d c334 a7be
00000160: ed1d 923d b550 7ebb a245 063e f742 b73c
00000170: 0c40 4f3d 367f 39be ee16 9fbb 6115 bcbc
00000180: 2385 fdbd c826 50be d096 1abd d825 71bc
00000190: 80b2 5a3d 5ec3 4abb b7ec 4b3d 6c7d cf3d
000001a0: 081f 863c 2658 49bd 75d8 d1bd 3a44 213e
000001b0: 3849 4f3e 6968 d7bc 4339 5f3c 4179 ea3d
000001c0: 2b61 ae3d b8a2 e8bb 10a0 3e3e 13f2 87bd
000001d0: 45f2 c2bc 2d0e 19bd c1c8 b8be e1c6 143c
000001e0: b32a 9d3d e56b 833d c8f3 2bbd 973a 303d
000001f0: 1178 a13d 2889 a2bd 76b0 f63a 94fa 4abd
00000200: c6b8 18bd 5665 aebd 80c0 bb3d 5c5c 88bc
00000210: 1d5c 313d 7fe4 ef3d bb5a 78bd a5e6 8cbc
00000220: b166 7dbd 254a 043d 4486 b3b9 1561 1cbc
00000230: f52a a23a 7e76 89bc c029 69be 86eb f83c
00000240: 3006 2dbe ed71 12bc a251 063e 52e2 943e
00000250: 3304 bdbc 932e 2b3d 6484 933e 9c62 cbbb
00000260: 240c 1b3b 6a62 413d 08fb 99bd f8bf a7bd
00000270: 433b bcbd fa4b 23be ca6b fc3d d2c7 35bd
00000280: 0a46 b3bd 7077 54bd 2480 8cbc d7d4 5b3d
00000290: 739e b2bd e291 48be 166a f2bd 3bd1 663d
000002a0: 3c85 44ba 9ca8 583d 0b72 8bbd 92c3 e9bc
000002b0: 1b52 053c d2aa 9dbc 6f89 223d 4941 2dbc
000002c0: d28d 223e bef3 9ebd 8ef7 e4bc 7a90 34be
000002d0: 7586 983d 7036 cbbc 4054 eebd a548 893d
000002e0: 2a23 0b3d 9d46 9ebc d9c9 683d f509 a0bd
000002f0: 2a3f 173e c2d1 983d bc05 fabc 1e68 9dbd
00000300: dd56 443d b62d 6ebd b6b4 aa3d 8437 95bd
00000310: 8a41 f33d 070f 12be df89 863d 40d3 3dbc
00000320: 0442 8dbe 814a f0bc 1bb0 743d 62ad 083e
00000330: 6ada 43bd 6363 973a f42f bfbc be4d 22be
00000340: 4ffa 4fbe dae5 e13c 2052 df3d d2e5 d0bb
00000350: 6695 d43d a800 3a3d b254 573e 035d ad3d
00000360: ff5b efbc 4fb9 ad3d 45f1 a83e f291 6c3c
00000370: 2fcc 7d3d 2c72 103e 93ea 51bd 674b 833d
00000380: b7e1 8c3d 59fa e43c c387 f2bb 3fa0 95bd
00000390: 8f9f ce3d 9a3f a23c 2a8e 01bc b1ee 2c3d
000003a0: 083a 8b3c 06c0 00bd 6135 cbbc 7d04 443d
000003b0: af84 793d 8ab3 303c 8518 553d 214d fcbc
000003c0: 5a9a 00be f7a4 2abd b60b a33d 4771 3e3d
000003d0: 8471 7c3e af12 9a3d b0b9 ad3d 88db d63d
000003e0: 0f58 08bd 1aac 79bd 19c1 8e3e 6d20 b8bd
000003f0: 4c90 fd3d 9c57 32be 4364 2a3d ae06 453c

bias f4 [50]
-0.20583414 0.002536743 -0.06367405 -0.035699405 0.042982567 0.01713021 -0.00045358186 -0.041525606
0.06531503 -0.022671439 0.023042165 0.071556345 -0.053255953 0.07878971 -0.056828983 -0.010199319
-0.10494896 0.12220631 0.05937545 0.0493754 0.036710016 0.043999266 0.053157147 0.0006582545
-0.05300907 -0.019736044 0.03266763 -0.053534944 0.035234947 0.11114749 0.13329317 0.002249998
-0.044980086 -0.0813636 -0.02008164 -0.006688689 0.016492538 0.06053769 0.035109386 -0.033655208
0.009620983 0.0070912074 0.00838279 -0.03655472 -0.0067574233 -0.0051550297 -0.042607676 0.042008474
0.017987316 -0.03289052
00000000: 2fc6 52be 7c3f 263b 8a67 82bd 8a39 12bd
00000010: 7d0e 303d a754 8c3c bace edb9 c116 2abd
00000020: e3c3 853d 74b9 b9bc ecc2 bc3c 228c 923d
00000030: ea22 5abd 805c a13d 82c5 68bd 0b1b 27bc
00000040: 7bef d6bd 4d47 fa3d ac33 733d dc3d 4a3d
00000050: 3e5d 163d 9338 343d 4fbb 593d b68e 2c3a
00000060: 0a20 59bd 7cad a1bc 7ece 053d 7547 5bbd
00000070: 8552 103d 4ca1 e33d 017e 083e b474 133b
00000080: 0a3d 38bd f6a1 a6bd 4082 a4bc ca2c dbbb
00000090: 5c1b 873c 5ef6 773d dcce 0f3d 0bda 09bd
000000a0: 54a1 1d3c 5c5d e83b f857 093c 67ba 15bd
000000b0: 606d ddbb 86eb a8bb 6385 2ebd 1411 2c3d
000000c0: 235a 933c 36b8 06bd
