studies/HRS/VARGLLVM/model1_onlypoisson_all_encoder.pth (torch, 3279 bytes, 6 tensors)

fc.0.weight f4 [10, 6]
0.08338918 -0.15508482 0.38766858 0.034323756 0.020100411 0.021490475 -0.55418897 0.07566006
0.26915392 0.026307048 -0.15693839 0.022858806 0.35639438 -0.23871568 -0.25089297 -0.041719582
0.06209906 -0.0072420314 -0.31502178 -0.20382124 -0.081502885 -0.041425742 -0.015482037 0.04333842
-0.07441016 0.35865024 0.15810826 0.036678262 -0.046822287 -0.014471424 0.410255 -0.15600291
-0.06594427 -0.026103795 -0.043479804 0.055829704 0.016099853 0.3411787 -0.48867673 -0.030110946
0.01466133 0.025697106 -0.29572365 0.52553105 -0.35457218 -0.028192954 -0.028055402 0.026921185
-0.23895708 0.07284586 0.16762334 0.0080609685 -0.10090349 0.04629723 -0.13793306 -0.26950926
0.50926554 0.0016410893 -0.0879432 0.003383999
00000000: f2c7 aa3d 8ece 1ebe 7f7c c63e 1197 0c3d
00000010: 9ea9 a43c cb0c b03c 54df 0dbf a9f3 9a3d
00000020: 8bce 893e e181 d73c 75b4 20be 6442 bb3c
00000030: 5379 b63e e271 74be 0b75 80be 27e2 2abd
00000040: 955b 7e3d 904e edbb 894a a1be 84b6 50be
00000050: fcea a6bd 0aae 29bd 5fa8 7dbc a183 313d
00000060: 5b64 98bd 01a1 b73e 22e7 213e f23b 163d
00000070: bac8 3fbd 8d19 6dbc f20c d23e 3abf 1fbe
00000080: ca0d 87bd a0d7 d5bc e117 32bd b0ad 643d
00000090: d7e3 833c f9ae ae3e d633 fabe 3bab f6bc
000000a0: 1336 703c bd82 d23c 1769 97be 3489 063f
000000b0: 7c8a b5be e9f4 e6bc 71d4 e5bc d189 dc3c
000000c0: 2ab1 74be 3630 953d 74a5 2b3e 2712 043c
000000d0: 7da6 cebd 2aa2 3d3d 533e 0dbe 1efd 89be
000000e0: 3a5f 023f d219 d73a 901b b4bd 15c6 5d3b

fc.0.bias f4 [10]
-0.3601159 0.34347123 0.3398171 0.8223463 -0.94187504 0.54526764 -0.073923506 0.3193568
0.26899236 -0.3758017
00000000: 1c61 b8be 76db af3e 82fc ad3e 4a85 523f
00000010: b91e 71bf a996 0b3f 3565 97bd bc82 a33e
00000020: 5eb9 893e 1569 c0be

fc.2.weight f4 [10, 10]
-0.03675946 -0.34525132 0.13123828 -0.61435336 0.5511294 0.08818206 0.094985984 -0.27830803
-0.36482558 0.069913775 -0.49436086 0.25292683 0.38709813 0.17267393 -0.40366518 0.25914383
0.28310537 -0.04644499 0.16416395 -0.5926611 0.19394292 0.0011615895 0.26611492 -0.14853337
-0.35244218 0.2259099 -0.4846548 -0.051603135 -0.12838227 -0.16888833 -0.07618815 -0.2601902
0.29151967 0.16098258 -0.17548814 0.20152806 -0.03978014 0.32180816 0.025888907 -0.5437313
-0.20864816 0.109167986 0.31569067 0.39443606 -0.3898241 -0.04334488 -0.4227215 -0.33418408
0.06426868 0.050447058 -0.2008478 -0.19212991 0.07894298 0.43938777 -0.11202782 -0.31569672
0.03917575 -0.13062847 -0.081964545 0.1923572 -0.508376 0.079337075 0.11841367 0.775363
-0.6523629 -0.008759906 0.17757133 0.17937142 0.04817405 -0.73720664 -0.39263958 0.4782458
-0.121783845 0.35555434 0.15330064 -0.029971907 -0.14819622 0.32686168 -0.09964467 0.117199846
-0.23269695 -0.20814888 -0.010791742 0.08462233 -0.5293957 0.2743266 0.28370574 0.16872065
-0.37534627 -0.029615449 0.032539163 -0.26279202 -0.27170515 -0.54831326 0.7146095 -0.03500034
0.17171608 0.051309895 0.12621713 0.02631241
00000000: 1691 16bd c8c4 b0be 5463 063e 4346 1dbf
00000010: d116 0d3f cc98 b43d 0388 c23d 647e 8ebe
00000020: 6bca babe f42e 8f3d de1c fdbe a07f 813e
00000030: ba31 c63e 6fd1 303e 34ad cebe 80ae 843e
00000040: 30f3 903e 1a3d 3ebd 981a 283e a3b8 17bf
00000050: f998 463e 7a40 983a 3740 883e 2219 18be
00000060: 4d73 b4be ed54 673e ad24 f8be cf5d 53bd
00000070: a476 03be 10f1 2cbe 8808 9cbd a637 85be
00000080: 1142 953e 9ed8 243e 2ab3 33be 5f5d 4e3e
00000090: 80f0 22bd 0ac4 a43e f914 d43c f931 0bbf
000000a0: dda7 55be 7793 df3d 35a2 a13e 86f3 c93e
000000b0: 0697 c7be 678a 31bd f46e d8be 2d1a abbe
000000c0: 4c9f 833d 93a1 4e3d 0cab 4dbe b4bd 44be
000000d0: dbac a13d 6ff7 e03e d76e e5bd 00a3 a1be
000000e0: c076 203d 78c3 05be 07dd a7bd 49f9 443e
000000f0: ee24 02bf 7a7b a23d de82 f23d 317e 463f
00000100: 4101 27bf b585 0fbc 42d5 353e 24ad 373e
00000110: 2752 453d 93b9 3cbf 0e08 c9be a2dc f43e
00000120: cf69 f9bd 380b b63e d8fa 1c3e a587 f5bc
00000130: c0c0 17be 6a5a a73e 8112 ccbd 7906 f03d
00000140: 1c48 6ebe fb24 55be d9cf 30bc 794e ad3d
00000150: 7a86 07bf 8974 8c3e e141 913e 1bc5 2c3e
00000160: 632d c0be 199c f2bc c947 053d ad8c 86be
00000170: f01c 8bbe 425e 0cbf a6f0 363f 845c 0fbd
00000180: 57d6 2f3e 532a 523d 103f 013e 208d d73c

fc.2.bias f4 [10]
0.14029166 0.17981501 0.05234676 -0.08991799 0.040388845 -0.33051187 0.2214701 0.20995745
0.11090114 -0.11972111
00000000: 9ea8 0f3e 6d21 383e 8e69 563d ec26 b8bd
00000010: c66e 253d da38 a9be 0fc9 623e 16ff 563e
00000020: 2320 e33d 5730 f5bd

fc.4.weight f4 [4, 10]
-0.19306116 -0.509443 0.2888568 0.1526329 -0.08923882 -0.34390518 -0.18908657 0.3443478
0.24079478 -0.5576832 0.8473053 0.1978385 0.9268977 0.31880635 -0.050657433 -0.15050481
-0.47861594 -0.5515418 0.4352954 0.47632706 0.3354964 0.28691992 -0.5987102 -0.008763021
-0.7136044 -0.40186793 -0.079183735 0.20781775 -0.2928065 0.8073567 -0.115138546 -0.44583893
0.34089485 -0.36627492 -0.019115692 -0.2924256 -0.56401885 0.005904098 -0.23254193 0.2206016
00000000: d3b1 45be db6a 02bf 0ae5 933e cd4b 1c3e
00000010: d8c2 b6bd 5714 b0be e99f 41be 5b4e b03e
00000020: e892 763e 54c4 0ebf 00e9 583f 2d96 4a3e
00000030: 2b49 6d3f 963a a33e 2b7e 4fbd ef1d 1abe
00000040: 260d f5be d831 0dbf 0adf de3e 24e1 f33e
00000050: 2fc6 ab3e 2be7 923e 1245 19bf c692 0fbc
00000060: c7ae 36bf a2c1 cdbe 152b a2bd 2dce 543e
00000070: bcea 95be eeae 4e3f c2cd ebbd 0045 e4be
00000080: c589 ae3e 6388 bbbe 8398 9cbc cfb8 95be
00000090: 8a63 10bf 2a77 c13b 791f 6ebe 63e5 613e

fc.4.bias f4 [4]
-0.28342503 -0.030027397 -0.008194701 0.13666295
00000000: 161d 91be 04fc f5bc 1143 06bc 5ff1 0b3e
