low_rank_MPLN/sims/model_state_dict_test_1.pth (torch, 84079 bytes, 7 tensors)

a f4 [50]
000000 b9 52 14 40 cf bf 00 40 85 5f e8 3f 25 e2 c8 3f
       2.317549 2.011707 1.815415 1.5694014
000010 eb ad ae 3f 15 1c 8f 3f ee e2 57 3f 44 fb 36 3f
       1.3646826 1.1180445 0.8433064 0.7147715
000020 ae 89 e8 3e ea 11 28 3e be 34 bb 3c 12 ae 8a be
       0.4541754 0.16413084 0.022852298 -0.2708593
000030 aa b7 43 be 6b b8 61 be 58 43 f9 be 39 69 3e bf
       -0.19113031 -0.22043006 -0.48684192 -0.7437931
000040 37 8f 5c bf 35 59 55 bf fe 27 74 bf bf b0 98 bf
       -0.8615603 -0.83339244 -0.95373523 -1.1928939
000050 11 63 a3 bf b5 ce ac bf ae a6 a7 bf 69 c7 e6 bf
       -1.2764608 -1.3500582 -1.3097742 -1.8029605
000060 73 bd bf bf 29 54 e0 bf 95 48 db bf 4d 2d ab bf
       -1.497969 -1.7525684 -1.7131525 -1.33732
000070 7a 65 db bf 87 28 bc bf 01 56 e9 bf 26 4d fe bf
       -1.7140343 -1.4699868 -1.8229371 -1.9867294
000080 ae 73 ce bf 2c ee d6 bf f3 fd eb bf 0e 3b 09 c0
       -1.6129053 -1.6791434 -1.8436874 -2.1442294
000090 37 f2 08 c0 91 38 d9 bf 63 5c fb bf 98 d9 e6 bf
       -2.1397836 -1.6970388 -1.9637569 -1.8035154
0000a0 d9 1f ff bf 2a b2 03 c0 9d ed 18 c0 9e 63 12 c0
       -1.9931594 -2.0577493 -2.3895028 -2.2873302
0000b0 33 f6 0e c0 fd b3 f2 bf a7 54 d9 bf e2 73 fc bf
       -2.2337768 -1.8961178 -1.6978959 -1.9722865
0000c0 7f 62 0d c0 40 39 d5 bf
       -2.2091367 -1.6658096

encoder.fc.0.weight f4 [100, 50]
000000 75 a4 72 bc 66 2a 09 bd 0e 0c 77 3e d1 4d 32 bd
       -0.014809717 -0.0334877 0.24125692 -0.043531243
000010 08 ce c8 3d 40 ac 97 bc 87 bd cd bc 9a 6f c3 3c
       0.09804922 -0.018514752 -0.025114788 0.023856927
000020 e2 9c fa bb 15 36 02 3c 24 ed 03 bd c3 f2 93 3c
       -0.0076480964 0.0079474645 -0.032208577 0.018060094
000030 76 c0 8d 3d c8 62 f9 bc 95 9b c6 ba 6b 92 1c bc
       0.06921475 -0.03044261 -0.0015152568 -0.009556393
000040 d6 14 94 bc 45 ca af bc 9e 14 f8 3c 6b 2a 89 3d
       -0.018076342 -0.021458754 0.030283269 0.06697544
000050 f6 b2 11 bd a7 50 32 bc 70 4c f2 3b 8c ed c1 39
       -0.03557106 -0.010883487 0.007394366 0.00036988815
000060 93 18 1d 3c 15 ca 03 bd 65 1d d7 3d a0 06 90 3e
       0.0095883785 -0.032175142 0.105036534 0.28130054
000070 32 99 bd bd cf e1 d3 3c 23 83 3e bd 7e f1 82 3d
       -0.09257735 0.02586451 -0.04651178 0.06393717
000080 8c 28 c9 bc c8 50 87 bb 8e fb 0f 3d db d8 c5 bc
       -0.024555467 -0.004129503 0.03515201 -0.024151256
000090 75 28 b3 bc e5 3d a6 bc d4 7d 95 bc cb 2b 33 3e
       -0.021869877 -0.020293185 -0.018248476 0.17497174
0000a0 f1 a7 ee bb 71 65 c6 bc 4e da 40 bc a2 c6 09 3c
       -0.007283204 -0.024218293 -0.011770798 0.008409174
0000b0 c8 2a 7e bc 3d 96 7b 3c 8a 91 90 bb ca c6 57 bc
       -0.0155131295 0.015355644 -0.004411881 -0.013169954
0000c0 2b 16 8d 3c 19 3e 37 3d cb 05 d2 3d a1 ed 58 bd
       0.017222485 0.044736955 0.10255011 -0.052960996
0000d0 f5 80 56 3c 6f 4e b2 bc 48 9d 36 bd 97 8e fc 3d
       0.013092269 -0.021765916 -0.04458359 0.12331884
0000e0 ac 50 d5 39 ad 43 c4 bb 0a 9b ce bc 90 f2 82 3c
       0.0004068663 -0.005989513 -0.025220413 0.015984803
0000f0 3f 1c 0e 3c 40 33 30 bc 87 17 8a bc 5e 67 44 bc
       0.008673727 -0.010754406 -0.016856922 -0.011987535
000100 c0 00 90 3d ea e3 09 bc 25 36 8d bc cb 45 92 bc
       0.07031393 -0.008416155 -0.017237732 -0.017855546
000110 39 47 3c bd 12 89 0d 3e e4 e9 6b 3a 88 a2 f5 3b
       -0.04596636 0.1382182 0.0008999391 0.007496182
000120 b2 56 f2 bc 71 ec 73 3c 55 d5 73 bc 9a a6 04 bd
       -0.029582355 0.014887915 -0.014882405 -0.032385446
000130 b5 41 e7 3c ca 95 02 bd a4 73 f2 3d 3c 90 5f bd
       0.028229574 -0.03188113 0.11838463 -0.054580912
000140 c2 14 24 3d 58 5c 63 3c bd c4 a1 3b 0e e4 c3 bc
       0.04005886 0.013876997 0.004936783 -0.023912456
000150 dd 88 50 bc bf f5 ee 3b bd 11 98 bc 7a d4 27 3d
       -0.012727943 0.007292479 -0.018563146 0.040974118
000160 a9 a2 4c ba 92 ee 09 bd e8 28 07 bd 87 be 1a 3e
       -0.00078062207 -0.033674784 -0.032997996 0.15111743
000170 4e 9a 00 bd a5 33 91 3d 91 97 70 bd c8 56 4b 3c
       -0.031397156 0.070899285 -0.058738295 0.012410827
000180 0d ef 4e 3a 86 b5 e2 3b 20 72 53 3a 02 6e 20 bc
       0.0007893898 0.006918612 0.0008066017 -0.009791853
000190 bb 7b 31 bc e0 f7 6c 3c 12 22 02 bd b8 9a a2 3c
       -0.010832722 0.014463395 -0.031770773 0.019849166
0001a0 60 b8 3f 3d 0b 7a 0a 3c fd 87 4a bd 62 8b 6b 3b
       0.046806693 0.008451949 -0.049446095 0.0035941233
0001b0 a6 07 49 3e 1c 0b f4 bc 38 4c db bc 0e 61 3b 3d
       0.19631824 -0.029790454 -0.026769742 0.045746855
0001c0 06 65 16 bd 24 70 03 3c 5e e5 aa bd 1f 51 91 3e
       -0.036717437 0.008022342 -0.083445296 0.28382203
0001d0 da f4 f5 bc 68 29 d3 bb c9 59 cc 3c 0e 1a 3c bc
       -0.03002398 -0.006444145 0.024945157 -0.011480821
0001e0 ef 55 1c bd b5 fa 51 3c 9e 02 93 3c 63 98 96 bb
       -0.03816789 0.012816121 0.017945584 -0.0045958026
0001f0 1b 36 17 bc 55 e8 8e 3b 9c 29 88 ba a2 26 0a ba
       -0.009229208 0.004361192 -0.0010388377 -0.0005270039
000200 69 ae 67 bb 32 25 a8 bc 53 e2 96 3d 6e 1d ac bc
       -0.003535176 -0.020525549 0.07367387 -0.021010127
000210 ad 5c cc bb 31 bd 45 3d 7c 33 93 3b 33 47 82 bd
       -0.0062366338 0.04827613 0.0044922214 -0.063612364
000220 51 97 71 3d d3 17 de 3c bd f9 b4 bc fb 55 51 3d
       0.058982197 0.02711097 -0.02209174 0.051107388
000230 0a 72 78 bd ef 70 cc 3d 3a 9f a9 bc 0c ef 00 3b
       -0.06065563 0.09982478 -0.020705808 0.0019673733
000240 eb c7 f5 bc fe 32 45 3d 21 6c 56 bd 48 6a 22 3e
       -0.030002555 0.048144333 -0.052349214 0.15860856
000250 97 35 56 bd 08 a4 46 3c 16 4e 8e be db b8 2d be
       -0.0522972 0.012124069 -0.2779395 -0.16965048
000260 e0 20 45 be 72 a9 b9 bd 69 b0 87 be 4a f5 02 bf
       -0.19250822 -0.09065522 -0.26501778 -0.5115553
000270 bc 6a 0d be 14 cc cc 3d 72 09 c1 bc 16 3f 1d be
       -0.13810247 0.09999862 -0.023564074 -0.15356097
000280 63 da a8 be 65 82 bd bd 1f c6 66 be cc f9 83 be
       -0.32979116 -0.092533864 -0.22536515 -0.25776517
000290 93 a6 b3 be d1 6d 95 be c5 78 94 bd 85 fd 3b be
       -0.35088024 -0.29185346 -0.072495975 -0.18358429
0002a0 7b c5 85 bd 83 a7 f3 bc af 58 cd 3c 27 63 1a be
       -0.06531807 -0.029742962 0.025066702 -0.15076886
0002b0 58 88 c1 bd e8 ea fc bd 5c 63 50 be 24 25 c9 be
       -0.09449834 -0.12349492 -0.20350403 -0.3928615
0002c0 08 56 9a be fc 4d 3c be d9 4b 21 be 28 de f6 bd
       -0.30143762 -0.18389124 -0.1575159 -0.12054092
0002d0 6d d3 a9 bd 40 8f 99 be 50 eb 3a be 7f 17 23 be
       -0.082922794 -0.29992104 -0.18253827 -0.15926932
0002e0 6e 47 e7 be 46 1a 67 3d b8 66 6d bc a6 20 29 be
       -0.45171684 0.05642154 -0.014489822 -0.1651636
0002f0 2b 27 c0 be 3b ea 4e be 61 89 8d bb c9 a7 12 be
       -0.37529883 -0.2020654 -0.0043193554 -0.14321817
000300 4d c9 37 be 8a f0 3f be cd 00 45 be 42 04 a1 3d
       -0.17947884 -0.18744102 -0.19238587 0.0786214
000310 80 16 94 be 2a 28 1c bf 76 df 79 be c4 71 3d bd
       -0.28923416 -0.60998785 -0.2440165 -0.046251073
000320 e8 a8 ac 3a f2 df 4d be 87 09 5e bd b7 70 2a be
       0.0013172897 -0.2010496 -0.054208305 -0.1664456
000330 7d 77 ba 3b 84 a5 85 bd 77 86 58 bd 98 cf 8b be
       0.0056905136 -0.0652571 -0.05286261 -0.2730682
000340 bb 43 a7 be 57 df a7 be fc 57 2b be 2e a9 48 be
       -0.32668862 -0.32787582 -0.16732782 -0.19595787
000350 de 80 d6 bc de 94 8d bc 30 1f 05 bf e7 0e 82 3c
       -0.026184496 -0.0172829 -0.52000713 0.015876247
000360 db 6e a3 bd 50 73 6e bd 8f 68 82 bd b3 76 09 bc
       -0.079801284 -0.05821544 -0.06367599 -0.0083901165
000370 74 50 e6 bd 22 53 9b bd 1d 6a 00 3e d3 fd a4 bc
       -0.11245814 -0.07584216 0.12540479 -0.020140564
000380 0b d8 c7 bd cb e8 43 be 69 c4 0e be a4 e9 51 be
       -0.09758004 -0.19131772 -0.13942112 -0.20499283
000390 1f 89 ba be 97 e9 6d be 28 02 38 be 35 75 32 be
       -0.3643274 -0.23233639 -0.17969573 -0.17427523
0003a0 8e ab 0a be 6e b5 78 bd 45 1f 3d be 2f c6 63 bd
       -0.13542005 -0.0607199 -0.1846896 -0.055608924
0003b0 0f e4 da be bf c9 df bd 14 bd c6 bd 7e 22 83 be
       -0.4275212 -0.10927152 -0.097040325 -0.25612253
0003c0 6e 52 ad bd 81 a7 cb be 05 c7 71 be 8a a9 72 be
       -0.08462988 -0.39776233 -0.23611076 -0.23697487
0003d0 52 2f ab be d6 64 26 be 86 2f 24 be 73 24 1e be
       -0.3343454 -0.16249403 -0.16033754 -0.15443592
0003e0 1c 76 88 be 98 8a cd bd 44 5a bb bd 20 29 31 3d
       -0.2665261 -0.100362 -0.09148076 0.04325211
0003f0 86 45 17 be 50 af 25 be e6 5b 1c bc ba e8 cd 3c
       -0.14772615 -0.16180158 -0.009543395 0.025135387

encoder.fc.0.bias f4 [100]
000000 6d fa 7e 3e 6d 60 a5 3e 80 23 c5 3e 94 05 a0 be
       0.24900217 0.3230013 0.38503647 -0.31254256
000010 b0 24 ca bd 3e e3 ef bd a3 52 0c 3e 9d 47 77 be
       -0.09870279 -0.11713265 0.13703398 -0.24148412
000020 73 cb a9 3e 3a 3e b8 3e 52 1d 81 3f 99 dd 4f 3f
       0.33163032 0.35984975 1.0087073 0.81197506
000030 e1 33 58 3d db 41 0a 3c 58 12 d6 3d 12 da ae 3e
       0.05278385 0.008438553 0.104527175 0.3415075
000040 60 bb 91 3f 02 89 f2 be 7e b3 4c 3e 62 0f 83 3f
       1.1385307 -0.47370154 0.19990346 1.023907
000050 0f 01 5a be d7 1f 3c be a8 f7 91 3e 9a 1d 11 3e
       -0.21289466 -0.18371521 0.2850926 0.14171448
000060 4f 09 63 3e 0c 9b 8f 3f 09 28 1d 3e 3b a1 df 3e
       0.2217152 1.1219192 0.15347303 0.43677697
000070 1c 8c b5 3e ff de 7f be 8e f8 82 3e bf 62 8a 3e
       0.35458457 -0.2498741 0.25580257 0.27028462
000080 a3 bb 08 be 7a a3 3e 3e ac 82 53 3e 1e de 7d 3e
       -0.13352828 0.18617049 0.20655316 0.24791762
000090 f7 88 8e 3f f8 31 82 be 27 43 8a 3e a9 fe 93 3f
       1.1135548 -0.25428748 0.27004358 1.1562091
0000a0 45 d8 8e 3e 65 db 6b 3e 8a f5 58 3e 66 7c 1f 3e
       0.27899376 0.23032911 0.21187416 0.15574798
0000b0 01 9b 96 3e 62 89 e6 3d 08 54 0e bd 30 fb 56 3e
       0.29415134 0.112566724 -0.034748107 0.20994258
0000c0 ac db b1 3e 0e a0 b3 3e ce da e8 bc 38 d7 77 3e
       0.3473791 0.3508305 -0.028424647 0.24203193
0000d0 52 9b da bd f5 fd 3f 3e b2 27 54 3e 2d d9 9e 3e
       -0.10674156 0.1874922 0.20718268 0.31025067
0000e0 f1 d0 84 3f 60 70 29 3e 5d 9c 54 3d 8b 3f 90 3e
       1.0376264 0.16546774 0.051906932 0.2817348
0000f0 12 e7 58 3e 7e c3 48 3e 1c 8a 91 3f a9 6c 90 3e
       0.21181896 0.19605824 1.1370273 0.282079
000100 1e ae a2 3e 90 0c 23 3e eb bf a1 3f 91 12 44 3e
       0.31773466 0.15922761 1.2636694 0.19147708
000110 e6 fd 65 be b2 c0 06 be 27 7d 3a be e2 3f 76 3e
       -0.22460136 -0.13159445 -0.18211804 0.24047807
000120 27 a4 31 3e 1f 87 5b 3e dd 49 d5 3e 28 86 8d bd
       0.17347775 0.21438263 0.41657916 -0.06910354
000130 a0 c4 99 3e 63 f3 8a 3e 84 36 d0 3e 47 cb 39 3e
       0.30032825 0.27138814 0.40666592 0.1814395
000140 84 b0 ac bc ed b3 d1 3e ae ab 26 3e f9 69 88 3f
       -0.021080263 0.40957585 0.16276428 1.065734
000150 d4 0d b8 be f5 e8 ed bd e8 f9 70 3e cc 1c 8e 3f
       -0.3594805 -0.11616699 0.23532832 1.1102538
000160 7c 24 92 3f d7 2c 92 3e 1c 90 87 bd f5 1a 49 3e
       1.1417384 0.28549835 -0.066192836 0.1963919
000170 19 e4 14 3e 26 7c 57 be 6f c3 0c 3e 30 07 8a 3f
       0.14540137 -0.21043453 0.13746427 1.0783443
000180 13 5b 98 be e1 32 8d 3f fd f1 58 3e 82 f6 33 3e
       -0.29756984 1.1031152 0.21186061 0.17574504

encoder.fc.2.weight f4 [100, 100]
000000 c0 d5 9b bd f3 2d 48 3d 01 16 f3 bb da 7c 3f bc
       -0.07609129 0.048871946 -0.0074183946 -0.011687482
000010 3b d5 0a bd 5b 0a 9d bc c5 29 9b be 82 5a 1d 3e
       -0.03389476 -0.019169977 -0.30305305 0.15366557
000020 37 60 9b 3d 1b f6 b8 bd ca ac b6 3c dd e9 85 3d
       0.07586711 -0.09031316 0.02229919 0.065387465
000030 eb 06 98 3c fe b5 8a 3c 2b 95 20 be c7 d5 52 3b
       0.018557986 0.016932484 -0.15681903 0.0032170878
000040 d1 60 8a bd c5 76 13 3d 36 9e 8f 3d f1 f4 05 bd
       -0.067567475 0.03600194 0.07012598 -0.032704297
000050 6b 04 8f 3d 42 45 ca 3d 40 5b 8f 3d 6b 8e 76 3d
       0.069832645 0.09876491 0.069998264 0.060194414
000060 fe b9 e5 3d f2 b8 3b 3d 8b a2 42 be f8 37 a0 3a
       0.11217116 0.045830674 -0.19007318 0.0012223711
000070 c7 5b 47 bd e1 e0 b0 bd ac 0f 84 bd c1 69 0c be
       -0.04867151 -0.08636642 -0.06448302 -0.13712217
000080 0f cf 92 bd d5 87 89 bd 29 90 b8 3c c5 75 42 3d
       -0.071683995 -0.06715361 0.022529678 0.047475595
000090 41 27 ef bc 86 6f 8f bd 57 0e 35 bd f6 f0 8c 3c
       -0.029193522 -0.07003693 -0.04420313 0.017204743
0000a0 a6 e8 ff 3d f8 52 8b bd 3a e5 a1 3d e4 39 26 3c
       0.12495546 -0.068029344 0.079050496 0.010145638
0000b0 3c 0a d5 3c 9d 15 fd 3d 2a e6 c0 bd 87 ff e9 bc
       0.026005857 0.12357638 -0.094189 -0.028564228
0000c0 8e c1 03 bc 3c fb 51 3d 6a 42 64 3c ba eb fc 3d
       -0.0080417525 0.051264986 0.01393185 0.12349649
0000d0 33 71 9b bd 83 b6 fd 3b 33 96 c9 bd 1c 99 7e bd
       -0.075899504 0.0077427044 -0.09843101 -0.062157735
0000e0 e9 01 17 3d 63 b0 0f bd be 1b b4 bd 8b 01 af bc
       0.036867056 -0.035080325 -0.08794354 -0.02136304
0000f0 a9 27 ce 3c 8c e0 b1 bd ca 01 36 3b f7 5d bb bb
       0.025165396 -0.08685407 0.0027772062 -0.0057179886
000100 d5 37 0d 3d 34 a5 02 3e 60 26 fb bc d6 69 87 bd
       0.034477074 0.12758332 -0.030657947 -0.066119835
000110 ac 33 f9 bd 74 ff 32 3e bd 19 57 3e 13 7b 87 bc
       -0.12168059 0.1748026 0.21005912 -0.016538179
000120 8a b3 00 3d 35 7c 03 bd cd 42 99 3c d4 0f 6c 3b
       0.03142122 -0.032100875 0.01870861 0.0036020176
000130 f1 0c b9 3c 44 54 7c 3d 39 97 12 3e 25 de be bd
       0.022589179 0.0616038 0.143155 -0.093197145
000140 25 f7 e5 bd 38 14 bd bd 65 23 c4 3b 4e 55 98 bc
       -0.1122878 -0.09232372 0.0059856647 -0.018595364
000150 55 d9 3b 3e 47 86 95 3d 86 b2 83 bc c9 53 3f bc
       0.18344624 0.07301002 -0.016076338 -0.011677691
000160 46 30 b5 bd fa 46 81 bc 3d 84 f4 bc 5d ab ef 3c
       -0.08847098 -0.015780915 -0.029848212 0.029256517
000170 b7 29 67 3d 0a 14 3a bd 4a 82 1e 3d 74 ad 95 bc
       0.056436267 -0.045429267 0.038698472 -0.018271185
000180 07 15 d5 bd 93 fe dc 3c 68 2e 90 3c 40 73 01 3d
       -0.10404401 0.02697686 0.017600253 0.03160405
000190 cf 66 18 bd 73 fa be 3d f9 4b ee bc 65 6e 4f be
       -0.03720742 0.09325113 -0.029088961 -0.20256956
0001a0 9b 43 64 3d 66 72 cc 3d 83 30 a7 bd a7 c6 32 3d
       0.055728536 0.09982757 -0.0816355 0.04364648
0001b0 7a d2 31 3d 01 68 79 3d d1 d5 a7 3d 78 3a f6 bc
       0.043413617 0.0608902 0.08195079 -0.030057177
0001c0 55 4c 57 3c 01 6e 73 bc 95 89 56 bc 12 e9 54 bc
       0.013140758 -0.01485777 -0.013094326 -0.012995021
0001d0 95 20 e8 3c f0 02 b7 be cd 60 b3 bd 9c 0c f3 be
       0.028335849 -0.3574443 -0.08758698 -0.47470558
0001e0 ed 0f 2a 3d b7 e7 49 3e 8b 21 b0 bd d1 b2 d5 3d
       0.041519094 0.19717298 -0.08600148 0.10434497
0001f0 39 ff 55 3d 80 54 4a 3c 53 c9 7e 3e 03 1b 96 bd
       0.052245352 0.012349248 0.24881487 -0.07329371
000200 56 99 7f bd ac 7e 90 bd e4 ef 29 bd b3 2a 44 bd
       -0.062402092 -0.07055411 -0.041488543 -0.047892284
000210 66 54 c1 bc fb 60 3f bc 5f 89 82 bc 65 19 2f 3d
       -0.023599815 -0.011680837 -0.015934644 0.042748827
000220 f0 a7 46 bc b0 7b 2e be d0 c0 81 bc a1 30 7d 3c
       -0.012125 -0.1703937 -0.01583901 0.015453489
000230 93 44 16 3b 91 ff 01 3d f4 09 81 ba 4f 90 2c bd
       0.0022929057 0.031737868 -0.0009844885 -0.04212981
000240 83 38 6f bc e4 35 be bc 25 a6 06 3e 2b 25 99 bd
       -0.014600876 -0.023219056 0.13149317 -0.07477792
000250 f1 15 fc bd 74 77 16 3d ea c1 8c bc 2f b4 1c 3e
       -0.123088725 0.036735013 -0.01718231 0.1530311
000260 b2 3f a4 3c 27 2d 70 3d 3a 12 1d 3e 66 1c 0d 3e
       0.020049904 0.05863681 0.15338984 0.13780364
000270 b2 31 a4 3b f4 af 22 bc fc 31 08 3b 7d 74 b5 3d
       0.005010807 -0.009929646 0.0020781746 0.08860109
000280 6f 2c 01 bd c8 b3 e1 bd 03 e6 16 bd 3a d9 11 3c
       -0.031536516 -0.11020619 -0.03684045 0.0089018885
000290 99 4d 97 3e 51 1f b6 bd a6 ed 49 bd b3 13 65 bc
       0.2955139 -0.08892692 -0.049298905 -0.013981747
0002a0 2e 91 0e 3e c2 3e 1a 3e 8d d0 1f 3d e4 0c 3a 3d
       0.13922569 0.15063003 0.03901725 0.04542245
0002b0 75 66 4b 3d 4a 91 c3 bc 9d 04 24 3d 1a 76 9d bd
       0.049658258 -0.02387299 0.040043462 -0.07688542
0002c0 25 43 0f bd 7e 26 87 bd c6 c7 09 bd cb 0b a5 bd
       -0.034976143 -0.06599139 -0.033637784 -0.0805889
0002d0 5d d7 12 bd 67 64 8b bd 78 92 c7 3c b9 f8 c5 ba
       -0.035849918 -0.068062596 0.024361834 -0.0015104032
0002e0 df 52 e3 3d 86 77 3f bd 5a d1 3b bd e3 c0 47 3d
       0.11099791 -0.046744846 -0.04585395 0.048767935
0002f0 32 54 4d ba 7e 81 03 bd 7b 81 9f bd 72 60 b2 3d
       -0.00078326755 -0.032105915 -0.07788368 0.08709802
000300 ac 4b 03 be 32 73 7a 3d b5 fe 85 bc 0c 35 09 b9
       -0.12821835 0.061145015 -0.016356805 -0.000130851
000310 b3 ef c8 3d e3 86 a9 bb e8 b0 35 bc 96 03 26 3d
       0.09811344 -0.0051735505 -0.011089541 0.040530764
000320 4b 56 ac bc 89 f7 2c 3d 65 30 e4 bd ad ed 0a be
       -0.021037241 0.042228255 -0.11142043 -0.13567229
000330 8b b0 02 bd b0 08 ab 3d 07 c1 4a 3e 45 4c d0 3b
       -0.031906646 0.083512664 0.19800197 0.0063567483
000340 fb 17 10 be 01 78 09 bd 93 8e a4 bb 7f 50 ea 3b
       -0.14071648 -0.03356171 -0.005021879 0.007150709
000350 38 63 5f 3d f9 da ac bd db 0c 06 3d bd e2 fd bb
       0.05453798 -0.08440203 0.032727104 -0.0077479766
000360 e2 36 7f bb 86 6e ea bc 7c f3 53 3b 2d c1 80 3a
       -0.0038942625 -0.028617155 0.0032341173 0.0009823196
000370 50 25 75 3d 1a eb 9e bd bd fc 9c bc c2 58 e8 bc
       0.059850037 -0.07759686 -0.019163484 -0.028362636
000380 33 f9 21 bd e4 0a 68 39 78 41 78 3d f2 84 1b be
       -0.039544296 0.00022129301 0.06060931 -0.15187433
000390 5c 13 b2 3d 3d 48 81 bb 29 f8 24 bd 3b 49 7c 3e
       0.08695099 -0.003945379 -0.040275726 0.2463731
0003a0 fb 33 86 bd 47 d0 f6 bc c0 f4 5c bd a6 02 09 3e
       -0.06552883 -0.030128611 -0.05394435 0.13379917
0003b0 6b e3 18 bc 40 d7 86 bd b8 b9 34 bd e6 77 a7 3a
       -0.009331564 -0.065840244 -0.044122428 0.0012776821
0003c0 69 84 5e bd 55 69 cf 3d a6 73 ba bd e9 0d f8 3c
       -0.054325495 0.10127512 -0.091040894 0.03028007
0003d0 b3 b8 d5 3d cf d1 a5 3c b8 09 36 3d d6 da 00 3d
       0.10435619 0.020241646 0.044442862 0.0314587
0003e0 6c 25 80 3d 14 34 f1 bd ef 58 27 bc 3b 61 1f bc
       0.06257138 -0.11777511 -0.0102140745 -0.009727771
0003f0 85 23 95 3c 04 48 ac bb 54 bb b8 bc 31 92 26 bd
       0.018205414 -0.0052576084 -0.022550263 -0.040666763

encoder.fc.2.bias f4 [100]
000000 bc 75 64 3d 6a ec f6 be 18 ac c4 be b1 77 7b bc
       0.055776343 -0.48227245 -0.38412547 -0.015348361
000010 1f c8 77 bd 6d 60 3e 3d b1 f8 c0 bd f1 f4 c7 be
       -0.060493585 0.046478678 -0.09422434 -0.39054063
000020 06 5f 82 bd 2d 83 01 3d ee 02 4c 3e f9 9e ee 3d
       -0.063657805 0.03161924 0.19922993 0.116514154
000030 4b 5d 25 3d 6f f6 6a 3e 0f 23 e0 be 06 93 a1 bc
       0.040372174 0.2294557 -0.43776748 -0.019723427
000040 16 a7 70 3e d9 a7 e2 3e f8 f2 03 3e c5 d8 2e 3e
       0.23501238 0.44268683 0.12885654 0.17074879
000050 d7 cf 59 3e 80 5e 9b be d0 2e a6 be 5c 2b 8a be
       0.21270691 -0.30345535 -0.3245759 -0.26986206
000060 70 76 7a be c5 8c 2e 3e fb da 41 3e 45 d5 d0 3e
       -0.24459243 0.17045887 0.1893119 0.40787712
000070 95 72 82 be 79 10 b9 3e c3 fb 9e bd 1b c0 cc 3e
       -0.25478044 0.3614538 -0.077628635 0.39990315
000080 7d 2a ac 3d db 5d eb 3e 0b b4 0b bc 21 59 c0 bd
       0.084065415 0.45970044 -0.008526812 -0.09392
000090 ee 51 c0 be 5d c9 4f be 0f 59 a4 3e 69 f1 bd be
       -0.37562507 -0.20291658 0.32099196 -0.37098244
0000a0 c5 0a 95 be 4c 63 82 3e 34 80 b4 3e 40 0f 33 be
       -0.2910978 0.25466383 0.3525406 -0.17486286
0000b0 30 e8 d7 be 24 41 56 be ab e6 c6 bd 2f 1a 10 be
       -0.42169333 -0.20923287 -0.09711965 -0.14072488
0000c0 15 2f 5c 3e 1b 36 1d be c3 82 3f be 00 fa 58 3e
       0.21502335 -0.15352671 -0.18702225 0.21189117
0000d0 e8 b2 9d be c0 46 ce 3e 11 68 95 bd 3b 90 19 3e
       -0.30800557 0.40288353 -0.0729524 0.14996426
0000e0 09 7c ca 3d 07 ce fa bd 3d 43 be 3e 44 c4 80 3e
       0.09886939 -0.12246328 0.37160674 0.2514974
0000f0 33 36 84 be 43 bc 44 be 7d d4 03 3d 79 29 a4 3e
       -0.258226 -0.19212441 0.032185066 0.3206289
000100 f8 83 8b bc e8 84 30 bc 97 9d 5f 3e f6 44 60 be
       -0.017030701 -0.010773875 0.2183746 -0.21901307
000110 45 c4 d3 be 23 93 bb be 80 4f 2f 3e 9b 45 ae bd
       -0.4136068 -0.36635694 0.1712017 -0.0850937
000120 14 e8 96 be 05 50 5f 3d 3f 26 c7 bd 38 3e cf be
       -0.29473937 0.054519672 -0.09724092 -0.40477157
000130 59 a6 e4 bc 3f 45 6b be 0d 23 1f be 5a a0 b1 3e
       -0.027911352 -0.22975634 -0.15540715 0.3469265
000140 57 a9 10 3e 72 37 48 3c 2b d9 ae 3e 02 9b c6 3e
       0.14127098 0.01222025 0.3415006 0.38790137
000150 17 c2 87 3e 6a f0 13 3e a5 ba 8c 3d 08 96 de bb
       0.26515266 0.1444718 0.06871537 -0.0067927875
000160 0a 98 83 be eb a9 30 be 98 bb ba 3e c1 37 d5 3d
       -0.25701934 -0.17252319 0.36471248 0.10411025
000170 50 0f fa bb 4e de 00 3d a6 46 a3 3e c1 23 92 be
       -0.00763122 0.031462006 0.31889838 -0.28542903
000180 83 1b 27 3e b6 5c 67 be ca 1e 7e 3e c8 6f 62 3d
       0.16319089 -0.2259396 0.24816433 0.055282384

encoder.fc.4.weight f4 [50, 100]
000000 a5 90 79 bd 8f 26 1a 3e 34 01 3e 3e e9 1b 6b bc
       -0.06092896 0.15053771 0.18555146 -0.014349916
000010 7b cb 99 bc 47 ef 9d 3d 04 85 60 3c 4e 70 c1 3d
       -0.018773785 0.07711654 0.013703588 0.094452485
000020 b8 6e 2c 3d 4d 29 1c 3d 19 50 a4 bd 56 af f2 bc
       0.042097777 0.038125325 -0.0802309 -0.029624622
000030 b3 62 1d 3c da 80 fb bd 8c 01 d2 3d 21 9e c1 bc
       0.009606051 -0.12280436 0.10254201 -0.023634972
000040 9c 9a b4 bd 2e 47 30 be c2 b2 95 bb db 8c c7 bb
       -0.08818552 -0.17214653 -0.0045684287 -0.0060897893
000050 dd 98 ac be 48 02 36 3d 88 f2 d7 3d 63 46 ff 3d
       -0.33710375 0.04443577 0.10544306 0.12464597
000060 4c 29 0b 3d 6c 7f 0e ba d2 72 6e bd ba 97 8a bd
       0.03397493 -0.00054358575 -0.05821497 -0.06767221
000070 4d 8c 06 3e 88 66 6a be d2 e5 a3 3d 62 0c 38 be
       0.13139458 -0.22890675 0.08002819 -0.17973474
000080 9c f9 16 bd 13 a9 94 be fe 53 b9 bd ae 71 01 3d
       -0.03685914 -0.29035243 -0.09049223 0.031602554
000090 17 38 84 3e 87 23 2a 3c e4 75 a5 bc 20 21 80 3e
       0.25824043 0.010384447 -0.020197816 0.25025272
0000a0 37 5b 77 3d 0b 8a a8 be 9c 42 63 be 6a 68 7e bc
       0.060389724 -0.32917818 -0.22193378 -0.015527824
0000b0 f6 9c 2d 3e 82 91 cd 3c aa 7e ff bc a2 bd ee 3c
       0.16954407 0.025093798 -0.031188328 0.029143158
0000c0 15 49 0d be 0a 00 94 3c 69 aa 8b bc d9 a1 c1 3c
       -0.1379741 0.018066425 -0.017049031 0.023636745
0000d0 22 86 60 3e f7 c7 8c bd 8e 9d 09 bd 37 1f 76 bd
       0.21926168 -0.06874078 -0.03359752 -0.060088363
0000e0 df c6 9b bd f6 a1 50 3b 06 8d cf bd f4 7d 80 bd
       -0.07606291 0.0031834817 -0.1013432 -0.06274024
0000f0 8e dc 28 3e 3d bf 2e 3d 01 a1 d9 bd b5 f4 01 be
       0.16490385 0.042662848 -0.10626412 -0.12691005
000100 7e 65 cc 3c 2f 4d bb 3c 25 4b af bc 9f a1 2e 3d
       0.024950739 0.022863952 -0.021398136 0.042634603
000110 00 96 23 3e cf ad 39 3d 00 a8 18 be 9c 19 49 bd
       0.15975189 0.045331772 -0.14907837 -0.04909669
000120 ff 77 e9 3d 7c 86 a0 bd a2 d1 b5 bc ff 4e 2a 3e
       0.113998406 -0.07838151 -0.022194687 0.16631697
000130 37 87 5d 3c 15 c3 aa 3d 5b d9 8e 3c d3 02 18 be
       0.013521007 0.0833799 0.017437628 -0.14844827
000140 2c eb ce bd a4 dd 9f bc a8 31 c9 bd 1b 4c 89 bd
       -0.10103449 -0.019514866 -0.09823924 -0.06703969
000150 48 55 33 be 9a ff bd bd b5 c9 f4 bc 6f d7 6d bd
       -0.17513001 -0.09277268 -0.029881338 -0.05806678
000160 d5 4f 20 3e 08 77 f9 3c 5d 31 c8 bd 4c 37 11 3d
       0.15655454 0.030452266 -0.0977504 0.035453126
000170 cb b6 85 3d b2 a8 0e bd 6f 66 af bd 77 01 c1 3d
       0.065290056 -0.03482885 -0.085644595 0.094241075
000180 53 a7 55 bd 16 af 88 3c 27 a6 14 be ff dc ff bc
       -0.052161526 0.01668505 -0.14516507 -0.031233309
000190 ac a0 e9 bc 44 d4 93 bd 1b 14 ca 3d af c1 54 bd
       -0.028518997 -0.07218221 0.09867116 -0.051942524
0001a0 39 48 bc 3c 6b f4 8a 3c e8 4e d1 3c 22 89 08 3e
       0.022983657 0.01696225 0.02555032 0.13333562
0001b0 3b 16 4f bd f1 13 4e bd 6d 7e a0 bd fa 39 83 3d
       -0.05055831 -0.050311986 -0.07836614 0.064075425
0001c0 9f f0 77 3d 9e c1 38 3c f5 44 9d 3b 6a a4 82 bd
       0.06053221 0.011276631 0.00479948 -0.06379016
0001d0 0e 37 11 be 29 14 ae bc e7 13 ae 3d 5e 03 9d bd
       -0.14181158 -0.021249847 0.0849989 -0.07666658
0001e0 1f c1 1b 3d ca 46 3e 3c 3a 2d 86 3d d3 84 0b be
       0.03802597 0.011613557 0.06551595 -0.13624887
0001f0 cd e1 f4 bd 0b 95 99 3d 5e 7f 6b bc db 80 ac ba
       -0.119571306 0.07499131 -0.014373628 -0.001316096
000200 a7 a0 4d 3e 28 b9 29 bd a6 c3 c3 bc 77 88 1f 3e
       0.20080815 -0.041436344 -0.023897003 0.15579401
000210 d5 3b c1 bc f5 0e 18 3b 5f d8 a1 bd 61 27 b8 3d
       -0.0235881 0.0023202274 -0.07902598 0.08991886
000220 89 31 1f bd 0d 3a a9 bc c6 56 aa bd a3 b4 42 be
       -0.0388656 -0.020657564 -0.08317332 -0.1901422
000230 7d 8f b0 bc 8c 8c 53 3e 90 7c 64 be 10 da 97 3a
       -0.021552796 0.20659083 -0.22313142 0.0011585373
000240 2a 3e 1e be 8e 29 3e bd 54 56 88 3d c4 0f a0 bc
       -0.15453401 -0.04642635 0.06657091 -0.019538768
000250 ce bc 2c 3d 66 8e 78 3c 86 dc 4d 3d 0d 7a 8a 3d
       0.042172246 0.015170669 0.050259136 0.067615606
000260 f7 37 90 be d6 13 25 3e a1 58 7f bd 8d 8e fa 3d
       -0.28167698 0.16120848 -0.062340382 0.12234221
000270 8e d9 98 bd a5 c0 a3 bd d3 e4 41 be 31 24 62 bc
       -0.0746337 -0.079957284 -0.18934946 -0.013802574
000280 9a 4a 96 3d ce 70 9a bd 9c ad 23 bd a4 21 5c 3e
       0.07338448 -0.07541047 -0.03996049 0.21497208
000290 60 a5 e2 3d 34 a8 79 38 91 9b 9b bd 2b 1b e3 bc
       0.11066699 5.9522878e-05 -0.07598031 -0.027722916
0002a0 d2 14 65 3e c6 95 2e bd b0 1b 49 3c 17 d5 17 bd
       0.22371224 -0.042623304 0.012274668 -0.037068453
0002b0 1f e6 b4 bd c3 ad b7 bd ff b3 bc bd 16 3c 4b 3e
       -0.088329546 -0.08968689 -0.09214019 0.1984714
0002c0 2e 24 9d 3d 10 2c b1 39 3e f9 82 bd e3 37 7e bd
       0.07672916 0.000337929 -0.063951954 -0.062065016
0002d0 c6 3f 4e bd a0 70 98 bd 8e a4 39 be 9d c4 b4 3d
       -0.050353788 -0.074433565 -0.18129179 0.088265635
0002e0 f3 12 68 3e 50 3e c6 bc fb 56 84 bd e3 91 d5 bd
       0.22663479 -0.024199635 -0.06461903 -0.10428216
0002f0 d0 94 20 bd 6d 2b 69 3b 73 9f a2 3c 27 66 b6 3b
       -0.03920442 0.0035578862 0.019851422 0.0055663767
000300 60 42 5a bc a1 cd 2e bd 79 48 75 3b a6 9c 35 bd
       -0.013321489 -0.04267657 0.003742723 -0.044338845
000310 95 5e f2 3c 63 96 f2 bc d4 2d 49 bc eb 20 9d bd
       0.029586116 -0.029612726 -0.012278993 -0.07672294
000320 39 7c 07 3e 4f 53 26 be 35 08 2e be 77 cd e1 3d
       0.13230981 -0.16242717 -0.16995318 0.110255174
000330 fe 39 b5 3d 04 f0 cc 3c 7d a3 f7 bc 46 d0 de 3d
       0.08848952 0.025016792 -0.030229324 0.10879569
000340 4a 76 3a bc 5c f6 cf bc 38 62 bc bd 9e 75 67 bc
       -0.011380741 -0.025386028 -0.09198421 -0.014127163
000350 fb 4f 22 3c a0 fc 4e be 18 85 4b be eb 77 1e 3d
       0.009906764 -0.20213556 -0.1987499 0.03868858
000360 24 9e 20 be ba 30 19 bc 9c 85 9c bd 2f d7 99 bd
       -0.15685326 -0.009349996 -0.076426715 -0.07511746
000370 d2 f8 a5 3e 7c 0e 4a bb e7 0a 77 bd f3 c9 a4 ba
       0.32416397 -0.0030831387 -0.06031313 -0.0012572393
000380 b3 0b 44 bc 38 1a dc bd ed 1c 55 bc 65 41 b2 bb
       -0.01196568 -0.10747188 -0.013007385 -0.0054399245
000390 f5 d4 65 3e 78 c1 65 bd 17 82 72 3d a0 51 7c bd
       0.22444518 -0.05609271 0.059206095 -0.06160128
0003a0 2b 0f 95 bc 80 af 91 bd 51 14 44 3b ac d1 28 3d
       -0.01819571 -0.07113552 0.0029919336 0.041215584
0003b0 ad 53 90 bd a7 f2 75 bd 80 3e fc bd 22 26 ac 3e
       -0.0704721 -0.060045864 -0.123166084 0.33622843
0003c0 89 f7 cc bd 19 57 52 3e 07 a2 81 3d 18 f4 0a 3d
       -0.10008151 0.20541038 0.063297324 0.033924192
0003d0 0d ec b7 bc e7 4b e2 ba bb a7 ef 3c 68 76 c2 bd
       -0.022451425 -0.0017265052 0.029254785 -0.094952404
0003e0 6a a5 d2 3c 7b d8 59 bc ad 52 0c 3d aa b1 87 bd
       0.025713641 -0.013296242 0.034258533 -0.066256836
0003f0 88 0d 6e 3e 71 16 64 be c4 25 50 bd 33 7c ab bd
       0.2324735 -0.22274186 -0.050817266 -0.083732985

encoder.fc.4.bias f4 [50]
000000 b3 68 0f bf 4b ae 57 3e 11 62 6b be de fa 9b bd
       -0.56019133 0.21062581 -0.22986628 -0.076162085
000010 e8 c9 05 3d da 09 b3 3c af 3a 1c 3e 6f 64 25 be
       0.032663256 0.021855284 0.15256761 -0.16151594
000020 8d 6a 7d 3e 6b dc 88 bc 3c 39 cc 3d 84 99 25 bd
       0.24747677 -0.016706666 0.09971854 -0.040429607
000030 94 e1 ae 3d 49 df bd bd 64 ca 38 3a b2 35 90 bd
       0.08539119 -0.09271104 0.00070492015 -0.070414916
000040 95 5c 2e bd b8 91 26 bd 5f e2 d4 3c d9 1b 91 3d
       -0.04256876 -0.040666312 0.025986848 0.0708539
000050 8b 16 f0 bc 24 5c 88 be 53 21 f7 3c e4 5e 95 3d
       -0.029307624 -0.26632798 0.030167257 0.072934896
000060 c1 0f 9d bd 31 df 72 bc 1c b3 20 3d e9 be 84 bd
       -0.076690204 -0.014823721 0.039233312 -0.06481726
000070 f2 0c a5 bc 00 b7 bb 3b 5a 13 ac bc c1 53 6d bd
       -0.020147774 0.0057286024 -0.021005321 -0.057941202
000080 4d 36 e0 bb e8 70 19 bd fd 09 58 bc e4 af 88 3d
       -0.0068424107 -0.03746119 -0.013185975 0.066741735
000090 2c a1 c5 3d 5f 56 09 bd ad 8e 1e 3b 5f 0d d5 3c
       0.09649882 -0.033529636 0.0024193928 0.026007352
0000a0 9a 25 6d bd 3a 74 cf bc b8 9c 5e 3b 6a a9 25 3d
       -0.057897188 -0.025323976 0.0033967923 0.04044477
0000b0 a7 3f 01 3d d7 b2 41 3d 8a 57 60 3d 62 5b f1 bc
       0.031554844 0.047289696 0.054770984 -0.02946252
0000c0 b3 98 20 bd ee 9c d1 bd
       -0.039208125 -0.1023501
