GLLVM_longitudinal/fit_study_without-9_all-obs.pth (torch, 118390 bytes, 25 tensors)

encoder.rnn.weight_ih_l0 f4 [60, 15]
1.9993308 0.12823947 -0.5291804 -5.714938 0.94338816 0.96411157 -1.3814135 -0.24444896
-0.18984279 -0.52534354 3.5013645 0.94780225 3.7104676 0.50523573 4.86815 3.6895585
-0.26034108 1.9153214 1.9632195 -0.66058743 -1.4921845 -0.3856672 0.073486276 0.316405
-0.7777477 -0.66338974 1.2523335 -0.34924954 -2.576965 -3.1970382 -2.416036 -0.3001096
3.7718027 -2.466552 -0.9391114 -0.33591393 0.70934325 -0.4960584 2.7545173 -0.99271137
-0.9604177 -1.4710894 -1.9297438 -0.2672279 -0.15684907 0.5469485 0.675908 -0.69169545
-5.708083 1.2925957 0.20097087 0.1746469 1.1790116 -0.50051737 0.5607601 -0.58166474
-0.3050648 4.65408 5.144638 1.7586083 -3.6349275 -0.25102642 3.7529745 -1.2509974
2.1344507 0.7354549 3.0447989 5.258862 6.133881 3.8247933 1.851256 -1.1256316
3.0046823 4.106615 4.146928 -0.20316207 0.03296485 0.32725516 -0.21390052 -1.7157322
-0.21958694 -2.4824781 -1.5320915 -1.9775982 -0.3657113 -2.1821072 -0.47858927 -0.8356149
-0.3847183 -0.9119898 7.526257 -0.80089194 -6.580772 -4.6422725 6.3639765 2.4395614
8.503738 5.630096 4.370944 3.4966283 6.566787 3.5048072 3.0630732 2.717402
3.7901084 -5.6506524 -0.8676795 6.982436 1.7298009 -7.84634 -3.8012798 -9.759057
-7.5748825 -7.1623173 -5.9026527 -8.444649 -5.95914 -5.00619 -3.2732909 -5.168427
-6.300676 0.2572408 2.6674204 -3.9213328 2.2379436 0.65393656 3.4163961 1.6543093
0.95219636 3.0301464 2.5801747 1.2615467 0.2409873 2.5062556 -0.3335474 3.9743662
-2.3137488 -6.1210065 -0.10817646 -2.6646729 -0.9300508 0.32690054 0.90955997 -4.043196
-1.1155831 1.1331617 4.3105793 -8.142651 -5.9929466 -12.792786 5.201937 -0.5687804
-6.383452 -0.5421216 5.826568 1.9101993 5.957281 5.215673 4.8307633 5.156857
6.0066967 6.3226233 3.127731 1.376276 3.1955435 1.957222 -0.56904787 0.17875712
2.4754198 -1.9297792 0.54275537 -1.2930424 -2.4921575 -0.948971 -1.6117809 -0.20421977
-0.36345068 -0.9910104 -1.6692988 -2.5433178 -0.21285382 0.10214827 0.9707654 -0.24842256
-0.31473592 -0.077161476 -0.38378718 -0.198136 -0.08579407 -0.17164531 -0.31502932 -0.5588486
1.1358206 0.15536483 0.4767503 -8.266546 1.2339829 4.1012797 -5.6923428 1.2041985
0.19541274 -1.269743 2.2128482 1.9675717 -0.014487515 1.0434151 0.42747134 -0.6180542
-0.19230074 2.4560528 -1.626146 1.753913 2.9495192 3.7077537 -2.082524 -1.8109305
-1.1009055 -2.1946084 -4.375805 -1.7696031 -0.6785719 0.17275418 -4.843217 -2.3236704
-2.0113387 -2.058831 -1.7102351 -4.4520664 -4.445049 1.4805734 -1.6011324 2.6046057
3.3405378 2.6298692 -0.6706486 0.17434067 -0.5046187 5.6474895 1.6584551 1.6373556
-0.44100618 -0.13013947 0.47227824 1.3510447 3.6167853 1.092017 4.471452 2.9425755
4.0743394 2.280802 3.4447067 1.2045034 -2.9797323 -2.6200488 -6.247606 -2.1499376
00000000: 12ea ff3f 3551 033e 5e78 07bf c6e0 b6c0
00000010: e381 713f 04d0 763f 28d2 b0bf d450 7abe
00000020: 2666 42be ea7c 06bf 5b16 6040 2ba3 723f
00000030: 4d78 6d40 2157 013f e3c7 9b40 ba21 6c40
00000040: 6d4b 85be 4029 f53f c74a fb3f 421c 29bf
00000050: e7ff bebf 2c76 c5be f97f 963d d6ff a13e
00000060: 791a 47bf e9d3 29bf 774c a03f d6d0 b2be
00000070: ffec 24c0 469c 4cc0 55a0 1ac0 f7a7 99be
00000080: 3765 7140 fddb 1dc0 9b69 70bf e9fc abbe
00000090: 8597 353f 5efb fdbe 034a 3040 5522 7ebf
000000a0: efdd 75bf a84c bcbf d801 f7bf 18d2 88be
000000b0: 0b9d 20be d104 0c3f 4f08 2d3f f412 31bf
000000c0: 9ea8 b6c0 c773 a53f 4fcb 4d3e a3d6 323e
000000d0: dae9 963f e821 00bf f98d 0f3f fbe7 14bf
000000e0: 7431 9cbe 39ee 9440 e0a0 a440 141a e13f
000000f0: a7a2 68c0 8986 80be bc30 7040 af20 a0bf
00000100: d79a 0840 c646 3c3f fcdd 4240 9948 a840
00000110: c148 c440 6ac9 7440 f5f5 ec3f b214 90bf
00000120: b74c 4040 6469 8340 a2b3 8440 b809 50be
00000130: 2706 073d fd8d a73e bd08 5bbe 1d9d dbbf
00000140: 66db 60be ece0 1ec0 931b c4bf f021 fdbf
00000150: 833e bbbe a5a7 0bc0 a709 f5be dcea 55bf
00000160: ccf9 c4be 2a78 69bf 19d7 f040 4107 4dbf
00000170: af95 d2c0 7f8d 94c0 b2a5 cb40 c621 1c40
00000180: 500f 0841 bf29 b440 c6de 8b40 c2c8 5f40
00000190: 1e23 d240 c34e 6040 6409 4440 eae9 2d40
000001a0: 2391 7240 25d2 b4c0 3e20 5ebf 1e70 df40
000001b0: 1e6a dd3f 3815 fbc0 2b48 73c0 1925 1cc1
000001c0: 7065 f2c0 b431 e5c0 88e2 bcc0 481d 07c1
000001d0: 46b1 bec0 b532 a0c0 997d 51c0 c163 a5c0
000001e0: 239f c9c0 11b5 833e 04b7 2a40 1ef7 7ac0
000001f0: 783a 0f40 6368 273f 3ca6 5a40 68c0 d33f
00000200: 24c3 733f ebed 4140 9521 2540 5d7a a13f
00000210: 60c5 763e 7e66 2040 bac6 aabe 045c 7e40
00000220: 7614 14c0 49df c3c0 9f8b ddbd 008a 2ac0
00000230: cf17 6ebf 825f a73e ecd8 683f dd61 81c0
00000240: 6dcb 8ebf 710b 913f 44f0 8940 4c48 02c1
00000250: 38c6 bfc0 40af 4cc1 4576 a640 989b 11bf
00000260: 3d45 ccc0 7bc8 0abf 3f73 ba40 6981 f43f
00000270: 0ca2 be40 cbe6 a640 9d95 9a40 f904 a540
00000280: dc36 c040 ee52 ca40 bf2c 4840 d029 b03f
00000290: c983 4c40 4086 fa3f 1fad 11bf 1b0c 373e
000002a0: 476d 1e40 0103 f7bf 04f2 0a3f 6a82 a5bf
000002b0: 827f 1fc0 c3ef 72bf d64e cebf fd1e 51be
000002c0: 3516 babe dcb2 7dbf 95ab d5bf b8c5 22c0
000002d0: 5af6 59be 1d33 d13d 1584 783f 7c62 7ebe
000002e0: 1125 a1be d606 9ebd c17f c4be 2ae4 4abe
000002f0: cdb4 afbd cac3 2fbe 864b a1be b410 0fbf
00000300: 9262 913f f517 1f3e 9e18 f43e c643 04c1
00000310: 27f3 9d3f af3d 8340 ac27 b6c0 2d23 9a3f
00000320: 471a 483e f086 a2bf 4e9f 0d40 64d9 fb3f
00000330: 0b5d 6dbc a08e 853f 86dd da3e cd38 1ebf
00000340: 7cea 44be f82f 1d40 8d25 d0bf 3980 e03f
00000350: ecc4 3c40 d64b 6d40 1348 05c0 92cc e7bf
00000360: 79ea 8cbf 7774 0cc0 9806 8cc0 5b82 e2bf
00000370: e3b6 2dbf 79e6 303e a2fb 9ac0 04b7 14c0
00000380: c6b9 00c0 e3c3 03c0 fce8 dabf 5477 8ec0
00000390: d73d 8ec0 6e83 bd3f e8f1 ccbf dcb1 2640
000003a0: 5fcb 5540 c74f 2840 a0af 2bbf 5c86 323e
000003b0: b12e 01bf 3cb8 b440 4248 d43f de94 d13f
000003c0: 90cb e1be 4843 05be 74ce f13e 08ef ac3f
000003d0: 6979 6740 37c7 8b3f 2316 8f40 2853 3c40
000003e0: fd60 8240 a9f8 1140 1376 5c40 2b2d 9a3f
000003f0: efb3 3ec0 e1ae 27c0 63ec c7c0 9498 09c0

encoder.rnn.weight_hh_l0 f4 [60, 60]
4.579816 1.9214427 1.4273156 -0.21351969 -4.356975 0.75864154 -3.9633365 1.6921494
-1.6392554 3.1858773 -2.1392164 -0.79267955 2.5460048 -3.8647833 -1.0433311 -0.64880526
1.8086274 1.2374321 -0.31811827 0.32204062 0.9326978 2.0212488 2.0829165 -1.4251496
0.95571715 0.22337285 4.34721 -2.860182 -0.59492654 -3.5178156 1.201536 -1.4935179
1.7920437 -2.0129442 -4.3813953 0.05471769 -4.911038 0.96746325 -0.25349876 -1.6075069
4.3353257 -3.118479 4.693992 4.637646 2.9437459 0.15543798 2.0928762 0.30771077
-3.449432 -0.15171945 -4.331519 1.8304303 -0.5622898 0.22493067 -0.016723001 -0.64473474
-0.7604298 -1.782564 -1.7811201 1.5986326 -0.30914617 0.6914766 0.5025243 -0.7299426
3.094191 0.5896137 0.8088393 -1.433784 2.8410442 -2.9808228 1.2079905 -0.6226461
-0.49149513 2.4107244 0.25657457 0.06438837 0.06976343 0.08489077 -0.50319386 -0.570983
2.0557835 -1.2387086 -0.2758918 1.2225845 0.37847883 0.57784325 -3.6894424 2.2143922
4.9215918 0.4667307 -0.21956128 0.779136 -0.18347064 3.4035287 2.7395704 0.17590263
2.9003456 -0.019143248 1.4199667 1.2143875 -1.4018326 3.6310654 -3.2948072 -2.8941891
-1.3187733 0.33685198 -0.91158265 0.014182349 2.8832383 0.7147041 3.961897 -1.1421858
1.1090438 -0.2522712 -1.0605373 0.42610207 0.026971806 2.2922578 0.6706334 0.56377906
-0.19292603 1.6922578 0.17878263 -0.15615043 -1.0693722 -0.11475522 -11.595995 2.7953389
-0.0331605 3.9959035 -2.0897923 -0.339589 2.5835462 -1.629329 -1.2193363 -0.89528036
0.12775567 -1.0560144 -0.9839968 1.1930817 -0.12867859 2.4603593 7.66458 -2.3047574
0.5458463 -4.962984 2.9567175 -1.3738694 -9.990161 -0.682714 -0.10217452 -3.6643734
2.1326563 -3.0431604 -1.4097563 -0.43872786 -4.3639903 0.046724048 0.47135264 2.2197208
2.5653417 -7.575665 3.7989604 2.2872136 5.1823215 -0.19580844 -1.4241393 0.4310175
-4.360548 -1.139765 -6.059831 0.35690725 0.52085483 1.3294744 -1.7200207 1.5272899
-0.15120529 2.7399163 -0.46503228 0.36374682 -2.0890987 1.0584929 0.053152073 2.3370266
-3.4443183 0.35161814 -3.648922 1.4337835 -1.7643768 5.4244785 -0.48214865 0.06313044
1.2878389 -1.9057409 -0.40092257 -0.634978 0.486019 2.5085654 -0.16259547 -0.6423179
-1.2903498 1.3666531 2.5588784 -3.3618138 2.1219118 0.48580056 5.0507526 -4.784416
-2.6993608 -2.490162 0.18647021 -2.1461062 2.339721 -1.6450875 -2.1794105 -0.75907123
-6.780185 -1.8470125 0.30448905 -2.3080096 3.119905 -3.1126146 5.5671453 4.397327
2.4839208 -1.9341797 0.7862782 0.011511378 -3.815754 -1.9337598 -5.5433207 3.607517
-1.0683243 0.35362878 -1.1926287 -0.5400201 -0.54924595 -2.949487 -0.77323097 0.6482318
0.39834267 -0.56305283 -2.1710742 0.2484342 0.054575153 -0.11827047 2.9679248 -2.90209
-0.9962624 -1.7032771 1.9440314 -0.9957686 -1.295697 0.544428 -0.41572237 0.061607104
00000000: da8d 9240 d6f1 f53f 47b2 b63f e8a4 5abe
00000010: 576c 8bc0 5536 423f 4ea7 7dc0 5a98 d83f
00000020: 1fd3 d1bf 6ae5 4b40 ece8 08c0 0ced 4abf
00000030: bef1 2240 9c58 77c0 e08b 85bf 1a18 26bf
00000040: 1a81 e73f 2d64 9e3f 66e0 a2be 82e2 a43e
00000050: 48c5 6e3f 245c 0140 814e 0540 4d6b b6bf
00000060: e1a9 743f dabb 643e 581c 8b40 390d 37c0
00000070: 1b4d 18bf e423 61c0 efcb 993f 982b bfbf
00000080: b061 e53f 14d4 00c0 6434 8cc0 a81f 603d
00000090: 3927 9dc0 acab 773f 97ca 81be c9c2 cdbf
000000a0: fdba 8a40 2995 47c0 2f35 9640 9967 9440
000000b0: 5566 3c40 222b 1f3e aff1 0540 448c 9d3e
000000c0: 7ec3 5cc0 585c 1bbe ce9b 8ac0 8a4b ea3f
000000d0: 39f2 0fbf 3a54 663e adfe 88bc 560d 25bf
000000e0: 87ab 42bf 0f2b e4bf befb e3bf fe9f cc3f
000000f0: 6848 9ebe 9c04 313f 6fa5 003f 85dd 3abf
00000100: 3a07 4640 ecf0 163f 1810 4f3f 3c86 b7bf
00000110: abd3 3540 cdc5 3ec0 6f9f 9a3f bc65 1fbf
00000120: 40a5 fbbe 4f49 1a40 be5d 833e 0dde 833d
00000130: 21e0 8e3d 36db ad3d 50d1 00bf f12b 12bf
00000140: f591 0340 018e 9ebf b141 8dbe a67d 9c3f
00000150: fac7 c13e 89ed 133f d31f 6cc0 9ab8 0d40
00000160: ae7d 9d40 54f7 ee3e acd4 60be 7575 473f
00000170: badf 3bbe 6ad3 5940 1f55 2f40 d21f 343e
00000180: 439f 3940 4dd2 9cbc 78c1 b53f 0d71 9b3f
00000190: 406f b3bf 6063 6840 1fde 52c0 653a 39c0
000001a0: 90cd a8bf dd77 ac3e 7b5d 69bf 155d 683c
000001b0: fa86 3840 d9f6 363f b88f 7d40 2533 92bf
000001c0: 26f5 8d3f b129 81be b0bf 87bf 0d2a da3e
000001d0: faf3 dc3c 5ab4 1240 a1ae 2b3f d353 103f
000001e0: 678e 45be e79b d83f cb12 373e e6e5 1fbe
000001f0: 30e1 88bf c904 ebbd 3289 39c1 d5e6 3240
00000200: 4ed3 07bd e2bc 7f40 28bf 05c0 9cde adbe
00000210: d258 2540 da8d d0bf 3613 9cbf 1831 65bf
00000220: 62d2 023e 7b2b 87bf 37e7 7bbf e7b6 983f
00000230: 52c4 03be 8776 1d40 3d44 f540 2581 13c0
00000240: 95bc 0b3f c4d0 9ec0 dc3a 3d40 f4da afbf
00000250: b3d7 1fc1 58c6 2ebf e040 d1bd 1885 6ac0
00000260: 717d 0840 24c3 42c0 e572 b4bf f0a0 e0be
00000270: cfa5 8bc0 b761 3f3d 2255 f13e e80f 0e40
00000280: 8f2e 2440 d96b f2c0 2b22 7340 b561 1240
00000290: 94d5 a540 0282 48be 324a b6bf 53ae dc3e
000002a0: 9c89 8bc0 d2e3 91bf 23ea c1c0 8cbc b63e
000002b0: be56 053f 382c aa3f a329 dcbf 3c7e c33f
000002c0: 8fd5 1abe ca5a 2f40 b618 eebe 063d ba3e
000002d0: cbb3 05c0 b27c 873f fdb5 593d d891 1540
000002e0: b66f 5cc0 4b07 b43e f087 69c0 3886 b73f
000002f0: 19d7 e1bf 5495 ad40 30dc f6be 884a 813d
00000300: e8d7 a43f 51ef f3bf b945 cdbe eb8d 22bf
00000310: 7bd7 f83e 568c 2040 6d7f 26be f26e 24bf
00000320: 2f2a a5bf 7dee ae3f aac4 2340 f527 57c0
00000330: 67cd 0740 daba f83e c49f a140 f019 99c0
00000340: 54c2 2cc0 d05e 1fc0 0cf2 3e3e ce59 09c0
00000350: fdbd 1540 3a92 d2bf 767b 0bc0 7e52 42bf
00000360: 47f7 d8c0 e86a ecbf fde5 9b3e 6eb6 13c0
00000370: 86ac 4740 1435 47c0 0e26 b240 e7b6 8c40
00000380: 8ff8 1e40 3393 f7bf 8749 493f 389a 3c3c
00000390: 5035 74c0 7185 f7bf e262 b1c0 8fe1 6640
000003a0: dabe 88bf d50e b53e 0fa8 98bf c23e 0abf
000003b0: 629b 0cbf 65c4 3cc0 77f2 45bf 85f2 253f
000003c0: 92f3 cb3e 3b24 10bf e1f2 0ac0 8965 7e3e
000003d0: 328a 5f3d ca37 f2bd 7bf2 3d40 d8bb 39c0
000003e0: 0d0b 7fbf fc04 dabf 05d6 f83f b1ea 7ebf
000003f0: 66d9 a5bf a25f 0b3f 90d9 d4be bb57 7c3d

encoder.rnn.bias_ih_l0 f4 [60]
1.6309394 -1.4886596 4.848057 0.01884546 5.726701 0.51865244 -0.07811256 -0.2810648
2.7784653 -11.02425 -0.10191027 -2.940023 -4.041585 8.214734 -2.074934 4.623793
0.1658715 4.982795 8.6697035 -2.4030993 0.944644 -3.1312878 -5.4532666 6.307604
1.8901479 5.151168 -2.777096 2.3285985 2.818038 -1.7667772 -5.7418127 0.5474697
-0.44865426 3.9698775 3.7761407 1.3893561 3.6088846 -1.4282483 4.9779234 -3.9266891
-6.656216 1.5933226 -4.8349495 -5.1452045 -2.5664315 -2.4070396 2.8398254 0.3199986
9.6361685 5.163026 2.5904899 -2.9524345 4.9257855 -0.9612982 -1.0946096 3.357842
1.9207909 2.2146256 -3.4818707 -1.9450889
00000000: 9fc2 d03f 668c bebf 4823 9b40 cb61 9a3c
00000010: 2241 b740 68c6 043f 7af9 9fbd bae7 8fbe
00000020: 60d2 3140 5463 30c1 55b6 d0bd 5629 3cc0
00000030: aa54 81c0 8d6f 0341 b8cb 04c0 1df6 9340
00000040: 38da 293e 0e73 9f40 1bb7 0a41 61cc 19c0
00000050: 30d4 713f 0567 48c0 2981 aec0 e4d7 c940
00000060: 5ef0 f13f 5ed6 a440 f1bb 31c0 c207 1540
00000070: bc5a 3440 c125 e2bf eebc b7c0 f926 0c3f
00000080: 03b6 e5be 7912 7e40 4aac 7140 6cd6 b13f
00000090: f7f7 6640 d7d0 b6bf 264b 9f40 e04e 7bc0
000000a0: b9ff d4c0 fff1 cb3f e8b7 9ac0 84a5 a4c0
000000b0: 6a40 24c0 f00c 1ac0 b3bf 3540 dbd6 a33e
000000c0: bf2d 1a41 8237 a540 96ca 2540 b0f4 3cc0
000000d0: 09a0 9d40 a417 76bf 2b1c 8cbf e2e6 5640
000000e0: 7adc f53f 6dbc 0d40 f8d6 5ec0 acf8 f8bf

encoder.rnn.bias_hh_l0 f4 [60]
1.6229141 -1.5733851 4.85843 -0.106402054 5.7102976 0.6541743 -0.07097508 -0.16036393
2.6876507 -11.033586 -0.15954612 -2.8103268 -4.087858 8.202056 -2.1351411 4.6308727
0.11404856 5.2291837 8.577237 -2.490389 0.9738019 -3.1871755 -5.4215655 6.198421
1.8479513 5.117651 -2.7255166 2.4059334 2.9941475 -1.5969062 -5.7836485 0.5790661
-0.27223876 3.94661 3.9079 1.3215177 3.664245 -1.4057597 4.7592416 -3.864837
-6.5695987 1.5850562 -4.7616568 -5.155809 -2.5325623 -2.35953 2.7748108 0.461372
9.529439 5.113721 2.7159219 -2.9206593 4.797282 -0.92711216 -1.1505297 3.3588822
1.958256 2.180577 -3.3346777 -1.8181065
00000000: a6bb cf3f af64 c9bf 4278 9b40 52e9 d9bd
00000010: c2ba b640 f877 273f 625b 91bd 7136 24be
00000020: 7802 2c40 9189 30c1 0f60 23be 65dc 33c0
00000030: bccf 82c0 9f3b 0341 27a6 08c0 1c30 9440
00000040: 4b92 e93d 7955 a740 5d3c 0941 8962 1fc0
00000050: 154b 793f affa 4bc0 777d adc0 7759 c640
00000060: ab89 ec3f ccc3 a340 dd6e 2ec0 d0fa 1940
00000070: 1da0 3f40 6c67 ccbf a613 b9c0 ad3d 143f
00000080: e162 8bbe 4295 7c40 091b 7a40 7e27 a93f
00000090: fd82 6a40 efef b3bf b54b 9840 7d59 77c0
000000a0: 273a d2c0 1fe3 ca3f 7e5f 98c0 63fc a4c0
000000b0: 8015 22c0 8a02 17c0 8096 3140 f338 ec3e
000000c0: 9578 1841 9aa3 a340 aad1 2d40 15ec 3ac0
000000d0: 5683 9940 3957 6dbf 8f44 93bf edf7 5640
000000e0: 22a8 fa3f 938e 0b40 5c6b 55c0 b7b7 e8bf

encoder.fc.0.weight f4 [60, 60]
-0.11298948 -0.38022295 1.3972751 1.0877504 -2.830507 0.13091752 -1.6838114 0.8903225
-0.8763541 1.9102436 -1.5119497 -0.90672845 1.8035203 -2.1152227 -0.13850671 0.39113608
1.2902637 1.1079391 -0.92568344 -0.9700459 -1.7665477 3.7434022 1.4560522 -0.85020435
0.70732075 -0.19934301 0.7210367 -2.8026729 -0.012993695 -1.6013379 -2.1741536 -1.5985359
-1.612827 -2.3057067 -1.7810664 -0.46026137 -3.3922331 -1.9322014 -1.5249945 1.1230748
2.4449043 -1.6564155 2.2755084 2.1349165 2.141966 -0.6503306 1.5097903 -0.87538266
-0.7790059 0.22565466 -2.1500616 -7.749478 -1.7368876 0.2602734 -0.7471598 -1.3898888
-0.30757734 -2.6827996 -1.8355306 -0.5828677 0.35861754 -0.6028303 0.28334475 0.3524887
-1.0696008 -0.723642 -1.0285103 -0.2911182 -0.9234575 0.3412216 -1.2245883 0.19164744
0.90225667 -1.1286772 -0.2884243 0.37892678 0.25616902 0.28844967 0.6510854 -0.31362697
-0.28941905 0.47347754 0.39388385 -1.0710579 0.27402365 -0.3413295 0.18793136 -0.5439957
-0.68116003 -0.18092345 0.55075854 -0.32941625 0.50573456 -0.5519899 -1.3131202 -0.07336087
-0.681271 0.11473659 0.36767176 -0.5406935 1.3490915 -0.58226603 0.7978366 0.9696078
0.66968554 -0.25498754 -0.20189892 0.50603116 -1.0393627 0.2444293 -0.9261273 -0.08003743
0.32196262 -0.940703 0.19302681 -0.123188704 -0.36644655 -1.0079633 -0.28812587 0.11025017
0.059986334 -0.0659671 0.15894657 -1.0217339 -1.0504766 -1.080817 -0.4216642 1.988352
-0.84933734 0.46767038 -0.30181304 -1.3045496 1.2597301 -1.8769404 -0.3221084 -0.058854934
0.5842243 1.2206151 -0.18223885 -1.4804125 0.18182085 1.0326166 0.73095345 -0.639488
1.0474844 -0.45960882 1.5137712 -1.3713018 -0.7324537 -1.8517994 -1.180462 -0.9390813
1.1290222 -1.2153186 -0.50498104 -0.6579168 -0.8560246 0.14789516 -0.7431727 -2.7759242
0.19433086 -2.7430396 1.9239645 1.8098629 0.38647643 0.74565285 -0.5911749 -0.50338703
0.63515955 -0.19265497 -1.4211236 0.5075947 -0.49276975 -0.18672857 -0.08161669 -0.9228301
-0.57222676 0.014266129 -0.03897576 -0.4931079 0.49611065 0.18308872 0.52968955 -0.39970815
-0.74598736 -0.036510173 -1.1742634 0.34797508 -0.7738251 0.9807181 -0.3965488 0.025988258
-0.044899717 -0.68414795 -0.59375674 0.34692147 -0.09331155 -0.45536518 0.06688516 -0.09754297
-0.41251245 0.34581274 0.98696065 -0.08137828 0.47217867 -0.79634213 1.5552354 -0.5322287
-0.50787324 -0.7706226 0.08420136 -0.108318605 0.055269603 -0.77858204 -0.11310442 -0.4169805
-0.5733136 0.2307611 0.20654055 -0.17875107 1.0685507 -0.46920168 2.6948817 0.9721313
0.3562238 0.21521762 -0.3725604 0.5780515 -0.5901645 0.0022427584 -1.0525959 0.7403643
-0.52009785 0.08492541 0.23060873 -0.2930257 0.3258358 -0.025859553 0.26910952 -0.16082476
-0.15412925 1.2686517 1.0289512 -0.9441542 -1.1401736 -0.22992526 -0.25046024 0.99835646
0.85556734 -0.05305473 -0.78306323 -0.8666997 -3.2962816 -0.093905516 0.0952645 0.60594535
00000000: 0767 e7bd 95ac c2be e9d9 b23f 683b 8b3f
00000010: 0727 35c0 3e0f 063e 2287 d7bf 2dec 633f
00000020: be58 60bf dd82 f43f 9187 c1bf 5b1f 68bf
00000030: c1d9 e63f cf5f 07c0 b4d4 0dbe fd42 c83e
00000040: 5c27 a53f f3d0 8d3f 97f9 6cbf ee54 78bf
00000050: 3c1e e2bf e793 6f40 eb5f ba3f fea6 59bf
00000060: f912 353f 9320 4cbe dc95 383f fe5e 33c0
00000070: 82e3 54bc a4f8 ccbf 5525 0bc0 d39c ccbf
00000080: 1d71 cebf b390 13c0 fcf9 e3bf 61a7 ebbe
00000090: 591a 59c0 6052 f7bf 0533 c3bf eac0 8f3f
000000a0: 5079 1c40 6c05 d4bf eea1 1140 79a2 0840
000000b0: f915 0940 117c 26bf cf40 c13f 1419 60bf
000000c0: ee6c 47bf 0412 673e 9c9a 09c0 b9fb f7c0
000000d0: 5552 debf 8e42 853e dd45 3fbf e0e7 b1bf
000000e0: c77a 9dbe fdb2 2bc0 abf2 eabf d136 15bf
000000f0: b89c b73e 1653 1abf 9012 913e 6679 b43e
00000100: aee8 88bf 9a40 39bf 3aa6 83bf 720d 95be
00000110: b667 6cbf 99b4 ae3e 4fbf 9cbf 3a3f 443e
00000120: 4bfa 663f 7f78 90bf 5aac 93be b102 c23e
00000130: 9628 833e adaf 933e 88ad 263f b793 a0be
00000140: bc2e 94be a66b f23e 25ab c93e 6d18 89bf
00000150: d44c 8c3e bdc2 aebe 1471 403e 4d43 0bbf
00000160: 8160 2ebf ff43 39be 83fe 0c3f 3fa9 a8be
00000170: d277 013f 364f 0dbf 5314 a8bf 393e 96bd
00000180: c767 2ebf 04fb ea3d 793f bc3e e46a 0abf
00000190: 08af ac3f 630f 15bf 053f 4c3f 3738 783f
000001a0: 8370 2b3f ba8d 82be 97be 4ebe 428b 013f
000001b0: d609 85bf ad4b 7a3e ae16 6dbf aaea a3bd
000001c0: 49d8 a43e e9d1 70bf d2a8 453e 5c4a fcbd
000001d0: e29e bbbe f104 81bf 3c85 93be d7ca e13d
000001e0: 3bb4 753d c219 87bd e4c2 223e 2dc8 82bf
000001f0: 0476 86bf 3658 8abf 5fe4 d7be 5182 fe3f
00000200: 2c6e 59bf 7e72 ef3e 3d87 9abe 7bfb a6bf
00000210: d63e a13f 953f f0bf 64eb a4be df11 71bd
00000220: b98f 153f 1e3d 9c3f d29c 3abe 287e bdbf
00000230: 3f2f 3a3e c82c 843f c41f 3b3f 7cb5 23bf
00000240: f813 863f d951 ebbe 41c3 c13f d186 afbf
00000250: 1682 3bbf c307 edbf 6119 97bf a267 70bf
00000260: cd83 903f 8f8f 9bbf 7046 01bf 3c6d 28bf
00000270: 6e24 5bbf d471 173e 9140 3ebf bea8 31c0
00000280: abfe 463e f68d 2fc0 7844 f63f 96a9 e73f
00000290: 3de0 c53e 1be3 3e3f 3d57 17bf f9dd 00bf
000002a0: d199 223f 5847 45be 61e7 b5bf baf1 013f
000002b0: 514c fcbe c635 3fbe a726 a7bd 983e 6cbf
000002c0: 747d 12bf 7bbc 693c 0ca5 1fbd a378 fcbe
000002d0: 3702 fe3e 9c7b 3b3e bc99 073f 8ca6 ccbe
000002e0: 07f9 3ebf b18b 15bd 434e 96bf ca29 b23e
000002f0: 6719 46bf 5710 7b3f 7208 cbbe 54e5 d43c
00000300: c4e8 37bd 5224 2fbf 7100 18bf b19f b13e
00000310: 201a bfbd a025 e9be 16fb 883d 9cc4 c7bd
00000320: d534 d3be 5e0e b13e 74a9 7c3f a8a9 a6bd
00000330: 67c1 f13e 14dd 4bbf f411 c73f 2440 08bf
00000340: fb03 02bf 8647 45bf c371 ac3d 25d6 ddbd
00000350: 6162 623d 2751 47bf 4aa3 e7bd 787e d5be
00000360: aec4 12bf a34c 6c3e 5e7f 533e 850a 37be
00000370: 45c6 883f 343b f0be f178 2c40 99dd 783f
00000380: f762 b63e 0262 5c3e 3dc0 bebe 2ffb 133f
00000390: 0515 17bf 3efb 123b 76bb 86bf 8488 3d3f
000003a0: 2225 05bf 60ed ad3d b224 6c3e 7707 96be
000003b0: f3d3 a63e 6ad7 d3bc b9c8 893e 3faf 24be
000003c0: 0fd4 1dbe 2e63 a23f acb4 833f 17b4 71bf
000003d0: 35f1 91bf 8771 6bbe 533c 80be 4a94 7f3f
000003e0: 7606 5b3f eb4f 59bd d576 48bf 08e0 5dbf
000003f0: 47f6 52c0 8951 c0bd 091a c33d 3c1f 1b3f

encoder.fc.0.bias f4 [60]
-2.733984 -1.5008653 -2.5559483 -1.6453425 -1.586101 -3.7093318 -1.8926368 -1.3502212
-0.4281281 -2.5435672 0.17830302 -1.5880389 -1.9839776 -3.3980803 -2.6417155 0.6806002
-1.5280293 -2.1723657 -1.3586361 -1.2061133 -1.39472 -1.9385675 -2.5454113 -2.0680127
-0.5897997 -1.7511306 -1.4944854 -1.5066818 -1.3182262 -2.2783592 -2.0883596 -2.4357197
-2.4956186 -1.4872214 -2.1291013 -2.0584319 -2.9809837 -2.2941332 -2.2808487 -0.22389954
-1.1465763 -1.5850219 -2.0532053 -1.3947035 -2.3625395 -0.65291154 -1.2911594 -1.8418233
-2.732918 -2.3098025 -1.4007168 1.4427854 -1.2654073 -3.142056 -0.3566305 -2.2363021
-1.8669088 -0.71049076 -2.79452 -2.1022613
00000000: 98f9 2ec0 5b1c c0bf a894 23c0 959a d2bf
00000010: 5c05 cbbf b165 6dc0 ec41 f2bf 0cd4 acbf
00000020: 9b33 dbbe cec9 22c0 1195 363e dc44 cbbf
00000030: faf2 fdbf 267a 59c0 de11 29c0 d13b 2e3f
00000040: 7796 c3bf 0a08 0bc0 cae7 adbf ec61 9abf
00000050: 2f86 b2bf fb22 f8bf 05e8 22c0 525a 04c0
00000060: 1dfd 16bf 0c25 e0bf 4c4b bfbf f3da c0bf
00000070: a3bb a8bf a3d0 11c0 afa7 05c0 d5e2 1bc0
00000080: 37b8 1fc0 455d bebf 3243 08c0 59bd 03c0
00000090: 70c8 3ec0 14d3 12c0 6df9 11c0 ec45 65be
000000a0: 03c3 92bf ffe1 cabf b767 03c0 a585 b2bf
000000b0: d933 17c0 3625 27bf b644 a5bf dec0 ebbf
000000c0: 21e8 2ec0 ced3 13c0 b04a b3bf 31ad b83f
000000d0: def8 a1bf 7217 49c0 4698 b6be 931f 0fc0
000000e0: def6 eebf b9e2 35bf 6ad9 32c0 738b 06c0

encoder.fc.2.weight f4 [60, 60]
-0.32158965 -0.23594029 -0.18771476 -0.018058589 0.03294946 -0.21714549 -0.030920459 0.019256627
-0.21114284 0.11872624 -0.10523248 -0.0907998 -0.20820493 -0.1911489 -0.059518635 -0.5800044
-0.14741881 -0.27366298 -0.22057088 -0.15079992 -0.17896008 -0.49776387 -0.28519 -0.12629701
-0.025724502 -0.124706954 0.06885415 0.12590113 -0.15772113 -0.05173941 -0.2022319 0.11955289
-0.05591636 -0.10693152 -0.32596684 -0.019392809 -0.11382693 -0.0043582916 -0.18972677 -0.083787754
-0.31038734 -0.16128705 -0.030485166 0.042434935 -0.1555243 -0.10219208 -0.160133 -0.15119448
-0.11465353 -0.31050956 0.08547487 -0.044002254 -0.25221896 -0.2576586 -0.019947113 -0.25252363
-0.3387298 -0.061938956 -0.11006921 -0.07139362 -0.21940441 -0.22749928 -0.26548228 -0.5315775
-0.5007516 -0.36652938 0.0332717 -0.22908469 -0.4274323 0.0033442893 -0.58500224 -0.49520773
0.1514298 -0.15241115 -0.06704815 0.051998094 -0.35507968 -0.50089055 -0.33140823 -0.21140791
-0.35289773 -0.0999442 0.003065619 -0.35411432 -0.22924297 0.12328311 0.027302355 -0.11561404
-0.044057418 0.060843956 -0.15401615 -0.20978546 -0.34547362 -0.15848058 -0.20635104 -0.29882228
-0.08058966 -0.25302908 -0.080162466 -0.1175214 -0.28923658 -0.20706248 -0.22359821 -0.09584955
-0.33389 -0.2900485 -0.5619121 0.17933872 -0.325881 -0.30150124 -0.16412438 -0.9351302
-0.0076230946 -0.4102231 -0.19987139 -0.009914988 -0.74645996 -0.123366 -0.066768885 -0.039309826
0.63070035 -0.10572939 0.2121707 0.13103123 2.4010677 1.7862681 -0.19356418 -0.6828211
0.71661717 -0.12803599 2.0457833 1.006956 -0.0041136653 0.39124203 0.44741648 1.6404647
0.25754562 -2.1184378 0.1191001 0.10226564 0.47511083 0.5698052 0.40409455 1.5279782
-0.23031758 0.47493124 1.137281 -0.09725682 0.33717144 0.9153454 2.1143436 -3.6031673
0.1638651 0.46883073 0.547808 0.22682475 0.069289766 0.4029381 0.9881466 -0.45832026
-0.12953633 0.6837554 0.36605117 0.5597881 -0.16264524 -0.96565163 0.5777909 -0.118380435
-0.07214224 0.569142 -0.14205666 1.2987909 0.6480987 -0.90673214 -3.278074 0.47296545
0.5182607 -2.8783345 1.347957 -0.049617853 -0.20048068 0.2063336 -0.055987034 -0.5671149
-0.25736564 -1.1305869 0.2778738 -0.15125123 0.025777753 -0.286237 -0.2351746 -0.14013292
-0.13873234 0.21009728 0.025486624 -1.2600317 0.21832687 0.10129607 0.12470874 0.07087182
0.032157537 -0.89702994 -0.21800373 0.20222992 0.14730707 -0.14511682 -0.10621271 -0.122642554
-0.75369227 -0.34311837 -0.21442185 -0.041019455 -0.42680016 -0.49402988 -0.87775546 0.06988477
-0.52510446 -0.17375413 0.110290535 0.26343307 -0.5697513 0.042069115 -0.74723464 -0.505456
0.12747657 -0.933697 0.19158609 0.076002076 -1.0144976 -0.25383243 -0.07463031 -0.31016394
0.08589474 -0.41503873 -0.044995993 -0.0073982645 0.22219895 -0.12117189 -0.7095509 -0.7319221
0.11661927 -0.37099868 -0.7142429 -0.3369904 -0.21980573 -0.4996115 -0.77743 -0.15326758
-0.7463371 -0.103991434 -0.35848728 -0.22062063 0.19601738 -0.26955703 -0.10151909 -0.31767282
00000000: 66a7 a4be 559a 71be 4c38 40be 9bef 93bc
00000010: 03f6 063d 635b 5ebe e74c fdbc 13c0 9d3c
00000020: d435 58be be26 f33d 2084 d7bd 3ff5 b9bd
00000030: ac33 55be 8abc 43be d0c9 73bd 2b7b 14bf
00000040: f5f4 16be 8e1d 8cbe 55dd 61be 4b6b 1abe
00000050: 5041 37be e8da febe 6c04 92be 0154 01be
00000060: 31bc d2bc 5c66 ffbd 6803 8d3d 3aec 003e
00000070: a681 21be b4ec 53bd e115 4fbe 25d8 f43d
00000080: 8e08 65bd eafe dabd 20e5 a6be abdd 9ebc
00000090: 181e e9bd 00d0 8ebb bc47 42be ea98 abbd
000000a0: 17eb 9ebe 6f28 25be 07bc f9bc 41d0 2d3d
000000b0: c341 1fbe 154a d1bd e8f9 23be bad2 1abe
000000c0: 78cf eabd 1cfb 9ebe 730d af3d b53b 34bd
000000d0: d822 81be d4eb 83be 2168 a3bc c74a 81be
000000e0: fe6d adbe b4b3 7dbd f76b e1bd d136 92bd
000000f0: 8dab 60be 92f5 68be 4bed 87be 7715 08bf
00000100: 4231 00bf bda9 bbbe e847 083d 2d95 6abe
00000110: 68d8 dabe dd2b 5b3b b5c2 15bf de8b fdbe
00000120: 6a10 1b3e ab11 1cbe 8a50 89bd f4fb 543d
00000130: 01cd b5be 5d3a 00bf 57ae a9be 517b 58be
00000140: 03af b4be 8baf ccbd 8de8 483b 794e b5be
00000150: abbe 6abe db7b fc3d 30a9 df3c 0ec7 ecbd
00000160: 8d75 34bd 8337 793d 69b6 1dbe 00d2 56be
00000170: ebe1 b0be bc48 22be b04d 53be 3cff 98be
00000180: 310c a5bd 078d 81be 382c a4bd 0faf f0bd
00000190: d116 94be 3008 54be eef6 64be c54c c4bd
000001a0: a1f3 aabe 3d81 94be 79d9 0fbf 92a4 373e
000001b0: e0d9 a6be 5f5e 9abe 3910 28be b164 6fbf
000001c0: 27cb f9bb c308 d2be 16ab 4cbe 7972 22bc
000001d0: 0018 3fbf 50a7 fcbd 20be 88bd 5703 21bd
000001e0: 9475 213f a788 d8bd 4743 593e 0d2d 063e
000001f0: 18ab 1940 6fa4 e43f b035 46be 5dcd 2ebf
00000200: 3974 373f de1b 03be 1dee 0240 efe3 803f
00000210: edcb 86bb e050 c83e c613 e53e bffa d13f
00000220: 05dd 833e 7c94 07c0 c1ea f33d a670 d13d
00000230: ba41 f33e c1de 113f 7be5 ce3e ca94 c33f
00000240: 5fd8 6bbe 302a f33e 6c92 913f 952e c7bd
00000250: bca1 ac3e 1354 6a3f 6851 0740 4b9a 66c0
00000260: 41cc 273e 950a f03e 253d 0c3f bf44 683e
00000270: cbe7 8d3d e74d ce3e 2df7 7c3f f4a8 eabe
00000280: 2ca5 04be 980a 2f3f 0f6b bb3e 464e 0f3f
00000290: 798c 26be f234 77bf 1bea 133f 7171 f2bd
000002a0: 50bf 93bd 4ab3 113f 4d77 11be c83e a63f
000002b0: cce9 253f 991f 68bf f7cb 51c0 8728 f23e
000002c0: bcac 043f a236 38c0 db89 ac3f 173c 4bbd
000002d0: cf4a 4dbe 1e49 533e a952 65bd 712e 11bf
000002e0: 6ec5 83be 12b7 90bf 7a45 8e3e 9ae1 1abe
000002f0: de2b d33c a88d 92be 9cd1 70be 017f 0fbe
00000300: da0f 0ebe be23 573e 53c9 d03c b848 a1bf
00000310: 1491 5f3e 5074 cf3d 4c67 ff3d 3f25 913d
00000320: 9fb7 033d c1a3 65bf 5f3c 5fbe 5c15 4f3e
00000330: aad7 163e 8199 14be 0d86 d9bd 052c fbbd
00000340: faf1 40bf 36ad afbe 6791 5bbe 0404 28bd
00000350: 8d85 dabe 7cf1 fcbe 95b4 60bf bf1f 8f3d
00000360: 3f6d 06bf 9aec 31be 01e0 e13d b3e0 863e
00000370: 39db 11bf aa50 2c3d c54a 3fbf 9065 01bf
00000380: 3889 023e c406 6fbf 252f 443e faa6 9b3d
00000390: 0fdb 81bf 53f6 81be c7d7 98bd cfcd 9ebe
000003a0: 95e9 af3d f57f d4be b84d 38bd 246d f2bb
000003b0: 1f88 633e f828 f8bd 21a5 35bf 3f5f 3bbf
000003c0: 15d6 ee3d 8af3 bdbe 9fd8 36bf 018a acbe
000003d0: c114 61be 14cd ffbe a705 47bf 2df2 1cbe
000003e0: f30f 3fbf 76f9 d4bd a58b b7be 60ea 61be
000003f0: c8b8 483e 6103 8abe 3ee9 cfbd 03a6 a2be

encoder.fc.2.bias f4 [60]
-0.9262017 -1.0836645 -3.0088234 -0.2685999 -0.87227154 -0.9629633 -0.62966305 -0.9196746
-0.6117428 -0.8803078 -0.3511946 -0.84535396 -0.57561296 -1.1773208 -0.6930893 -0.6502302
-0.7610264 -0.71554565 -0.23672158 -0.6234274 -1.1328177 -0.44969693 -3.873582 -1.3273015
-1.5638547 -1.0559918 -1.8868355 -0.8505082 -1.1199106 -0.38696155 -0.19449577 -0.63695383
-0.31429127 -0.6482453 -0.54398984 -0.57372105 -0.3838537 -0.28016546 -0.6077611 -1.3048223
-1.1625963 -0.52015567 -2.2369757 -0.30825523 -1.1015849 -0.7355321 -4.0833893 -0.14394914
-0.5075579 -0.5573967 -0.12920648 -2.2587128 -0.97994745 -0.53023803 -0.50465065 -1.4925927
-0.3057141 -0.84060645 -0.23301089 -0.51285577
00000000: 8e1b 6dbf 85b5 8abf 9090 40c0 ed85 89be
00000010: 304d 5fbf c384 76bf 9931 21bf cb6f 6bbf
00000020: 2d9b 1cbf da5b 61bf c7cf b3be 1e69 58bf
00000030: 5f5b 13bf 73b2 96bf 4d6e 31bf 7d75 26bf
00000040: a0d2 42bf 002e 37bf 2467 72be f098 1fbf
00000050: 2c00 91bf ad3e e6be c4e8 77c0 04e5 a9bf
00000060: 642c c8bf bd2a 87bf d383 f1bf e8ba 59bf
00000070: 3b59 8fbf d31f c6be e629 47be 680f 23bf
00000080: c9ea a0be 67f3 25bf eb42 0bbf 62df 12bf
00000090: 7988 c4be d971 8fbe 3b96 1bbf 6b04 a7bf
000000a0: f5cf 94bf ec28 05bf 9c2a 0fc0 a1d3 9dbe
000000b0: bc00 8dbf d54b 3cbf 20ab 82c0 6767 13be
000000c0: 51ef 01bf 8db1 0ebf b44e 04be c08e 10c0
000000d0: d6dd 7abf aebd 07bf c930 01bf 470d bfbf
000000e0: 8f86 9cbe fc31 57bf 689a 6ebe 844a 03bf

encoder.fc_Z.0.weight f4 [60, 60]
0.005407596 -0.29345554 -0.1884173 -0.3466538 -0.07530476 -0.024424635 0.04119705 -0.00912773
-0.23796806 -0.26752618 -0.37841445 0.2367667 0.1730563 -0.19062054 -0.25221053 0.06622897
-0.13339855 -0.12479273 -0.04258338 -0.11777365 -0.04508308 -0.07551752 -0.21970387 -0.05243747
-0.13155095 -0.05239267 -0.27492437 0.0321787 -0.17142315 0.17509425 -0.003054771 -0.25524464
0.04727827 -0.045721207 -0.087338425 -0.2138704 -0.06848363 0.47768736 -0.03781998 -0.19049858
-0.09619521 -0.011844546 -0.33468777 -0.08055912 -0.24683052 -0.12722482 -0.22417954 -0.06430897
0.027683027 -0.12001308 -0.07891167 0.02977214 0.31960532 0.029845908 -0.30634865 0.010948688
-0.048847906 0.042349566 -0.08832709 -0.023194792 -0.15806536 -0.1342403 -0.48695514 0.018077007
-0.18663624 -0.13235798 0.10213207 -0.31794807 -0.16085957 -0.15485333 -0.049642593 -0.051573455
-0.25374123 -0.13163215 -0.15096274 -4.1197305e-05 -0.03941069 -0.011328937 0.18788013 0.009993574
-0.0453489 0.01863329 -0.108636275 -0.09336103 0.017206056 -0.1116036 -0.10392495 -0.03849916
-0.1177573 -0.029662644 -0.04968144 -0.022571513 -0.03880794 -0.043484963 -0.020573253 0.028383773
-0.077138215 0.119551085 -0.17442165 -0.20253511 -0.19355689 -0.17366253 -0.09527685 -0.06857668
-0.029704943 -0.10354211 -0.20591484 -0.1530284 -0.1389412 -0.23873253 -0.21233314 -0.124904074
-0.1725213 -0.0134516265 -0.004451545 -0.22312388 -0.04805591 -0.10593738 -0.19685726 0.1730625
0.25929943 0.50890696 -0.76496875 -0.70090634 0.16247626 -0.356051 0.08048763 -0.17896521
-0.7305394 0.37221497 0.33871114 -0.9574246 -0.060503274 -0.238525 0.28537208 -0.21236905
-0.04667549 0.3168528 -0.01796609 0.051990148 -0.21035235 -0.20242798 -0.09128272 -0.28014398
0.38189662 0.14153275 -0.18693358 0.2607769 -0.019900475 -0.39484322 0.17778797 -0.05871526
-0.05846379 -0.108271115 0.0003944645 -0.109952785 0.06412436 0.0844114 -0.057982095 -0.24708177
-0.06380115 -0.03424765 -0.50846195 -0.114861846 -0.13971828 0.18027411 -0.18199626 -0.04268603
-0.19895837 -0.17368653 0.2961431 -0.4561468 0.43126592 -0.15103367 0.12856188 0.016485764
0.17788512 0.31860375 0.33649683 0.32381803 -0.23312318 -0.15088838 -0.34033886 -0.040529203
-0.0003277912 0.029927092 -0.14687222 0.10889576 -0.15343912 -0.029350527 -0.0009574653 -0.07094271
-0.07046741 -0.15499195 -0.020246103 -0.1605048 -0.09547439 -0.05366442 -0.025725307 -0.14507471
-0.07072551 -0.14906064 -0.31048644 0.008149802 -0.05330745 -0.086650856 -0.13463567 -0.035549153
-0.2300764 0.044374987 -0.021337114 -0.18845585 0.026871724 -0.089923725 -0.009982491 -0.025545321
-0.0767902 -0.0444846 -0.17398131 -0.17416514 -0.02594092 0.08365725 -0.44494712 -0.1245637
-0.40687123 -0.059047688 -0.2543498 -0.16210142 -0.016957153 0.10116537 -0.082651794 -0.062362302
-0.017080568 -0.14581737 -0.07639806 0.05351936 -0.055268116 0.02061186 -0.092409454 0.004009065
-0.010668892 0.024262628 -0.116109766 0.015955675 -0.07605585 -0.025074625 -0.04847291 -0.04435633
-0.08217517 0.03495957 -0.039376438 -0.13740966 -0.18586805 0.0016935394 -0.18288767 -0.09873597
00000000: 3432 b13b ce3f 96be 77f0 40be 9b7c b1be
00000010: 6239 9abd 2c16 c8bc 3dbe 283d 798c 15bc
00000020: e6ad 73be 31f9 88be 8abf c1be f872 723e
00000030: ac35 313e 0832 43be bd21 81be 0ea3 873d
00000040: a199 08be 5593 ffbd e96b 2ebd 5033 f1bd
00000050: 09a9 38bd eea8 9abd 0dfa 60be acc8 56bd
00000060: 4bb5 06be b299 56bd e3c2 8cbe d0cd 033d
00000070: 8d89 2fbe e84b 333e 8e32 48bb 6daf 82be
00000080: dca6 413d 2946 3bbd 7dde b2bd d800 5bbe
00000090: 2541 8cbd 7093 f43e 20e9 1abd 0f12 43be
000000a0: ff01 c5bd a00f 42bc 325c abbe 2efc a4bd
000000b0: 24c1 7cbe 3947 02be 528f 65be 6cb4 83bd
000000c0: 84c7 e23c 6bc9 f5bd 719c a1bd b4e4 f33c
000000d0: 4fa3 a33e 687f f43c bbd9 9cbe 2062 333c
000000e0: be14 48bd bd76 2d3d d5e4 b4bd 0103 bebc
000000f0: e3db 21be 4a76 09be 2f52 f9be 3b16 943c
00000100: 921d 3fbe da88 07be 9e2a d13d 17ca a2be
00000110: 5fb8 24be df91 1ebe 0856 4bbd b03e 53bd
00000120: 5fea 81be 94ca 06be fa95 1abe 45cb 2cb8
00000130: 1b6d 21bd 019d 39bc a663 403e 16bc 233c
00000140: c5bf 39bd d7a4 983c b27c debd 1134 bfbd
00000150: b7f3 8c3c 6e90 e4bd 9bd6 d4bd 4cb1 1dbd
00000160: bd2a f1bd 13ff f2bc c47e 4bbd e5e7 b8bc
00000170: 13f5 1ebd 4a1d 32bd 3d89 a8bc 1685 e83c
00000180: a4fa 9dbd 33d7 f43d 979b 32be 5d65 4fbe
00000190: c733 46be 97d4 31be 8220 c3bd ee71 8cbd
000001a0: c857 f3bc e30d d4bd 57db 52be 7ab3 1cbe
000001b0: 9a46 0ebe 4d76 74be dc6d 59be b5cd ffbd
000001c0: 6ca9 30be 3664 5cbc 44de 91bb 967a 64be
000001d0: 46d6 44bd b2f5 d8bd f394 49be 4c37 313e
000001e0: e5c2 843e ba47 023f fed4 43bf 996e 33bf
000001f0: 2d60 263e 514c b6be b3d6 a43d a842 37be
00000200: a104 3bbf f692 be3e 8c6b ad3e c719 75bf
00000210: 48d2 77bd e63f 74be 4a1c 923e 4677 59be
00000220: cc2e 3fbd 883a a23e 9f2d 93bc 9ff3 543d
00000230: 9b66 57be 4849 4fbe 6ff2 babd 086f 8fbe
00000240: f487 c33e f6ed 103e 846b 3fbe 8d84 853e
00000250: 5206 a3bc e428 cabe 0d0e 363e 6a7f 70bd
00000260: ba77 6fbd 3fbd ddbd 21d0 ce39 ed2e e1bd
00000270: a253 833d e2df ac3d a27e 6dbd 0103 7dbe
00000280: 2daa 82bd 4447 0cbd 902a 02bf b03c ebbd
00000290: 4f12 0fbe c799 383e 3a5d 3abe 8cd7 2ebd
000002a0: bebb 4bbe e2da 31be 12a0 973e 138c e9be
000002b0: e3ce dc3e 92a8 1abe baa5 033e 270d 873c
000002c0: 8427 363e 0820 a33e 5049 ac3e 7acb a53e
000002d0: d8b7 6ebe 7c82 1abe e540 aebe f301 26bd
000002e0: 64db abb9 a929 f53c ac65 16be bd04 df3d
000002f0: 251f 1dbe 8470 f0bc 69fe 7aba 694a 91bd
00000300: 3851 90bd 36b6 1ebe 28db a5bc 5f5b 24be
00000310: 1488 c3bd 39cf 5bbd e1bd d2bc 778e 14be
00000320: 89d8 90bd 5aa3 18be 14f8 9ebe bf86 053c
00000330: ea58 5abd 0176 b1bd efdd 09be fd9b 11bd
00000340: 2699 6bbe 8cc2 353d 2ccb aebc 92fa 40be
00000350: 1722 dc3c ee29 b8bd 9a8d 23bc 6c44 d1bc
00000360: 2e44 9dbd 7c35 36bd 2828 32be 5958 32be
00000370: 0d82 d4bc 7e54 ab3d 1cd0 e3be 411b ffbd
00000380: 6d51 d0be fddb 71bd 233a 82be eafd 25be
00000390: bae9 8abc ca2f cf3d 5845 a9bd 9d6f 7fbd
000003a0: 8cec 8bbc 2651 15be 9676 9cbd 1e37 5b3d
000003b0: d260 62bd 34da a83c 2b41 bdbd 7a5e 833b
000003c0: 94cc 2ebc 6bc2 c63c f5ca edbd 7ab5 823c
000003d0: 2bc3 9bbd 4d69 cdbc 888b 46bd fcae 35bd
000003e0: 754b a8bd c431 0f3d 3049 21bd 1eb5 0cbe
000003f0: 3254 3ebe c1f9 dd3a e846 3bbe 1636 cabd

encoder.fc_Z.0.bias f4 [60]
-0.6811867 -0.36000103 -1.3927157 -0.88045615 -0.38097334 -0.44015655 -0.5405661 -0.36806872
-0.6283983 -0.37529543 -0.11957637 -0.38350472 -0.57319194 -0.052249745 -0.8049215 -0.53815925
-0.21436745 -0.38854402 -0.39317763 -1.8855582 -0.6789584 -0.44933048 -0.41176933 -0.56203085
-0.07051576 -0.70918864 -0.9976425 -0.65392685 -1.1502552 -0.28793877 -0.3891288 -0.4555341
-0.68787867 -0.28714293 -0.5897297 -0.93623245 -0.31825414 -0.29825678 -0.42909318 -1.1734725
-2.6253245 -0.68158805 -1.0032475 -0.6914494 -0.46674976 -0.2850303 -0.24792498 -0.35100386
-0.767212 -0.50864744 -0.5713222 -1.4989412 -1.188312 -0.6625898 -0.6658698 -1.1946578
-1.344861 -0.4181648 -0.3746937 -0.393295
00000000: 4062 2ebf 0e52 b8be 8244 b2bf 9365 61bf
00000010: f00e c3be 335c e1be 8a62 0abf 8173 bcbe
00000020: b6de 20bf b926 c0be 75e4 f4bd bb5a c4be
00000030: b5bc 12bf d403 56bd 560f 4ebf cec4 09bf
00000040: 2483 5bbe 3eef c6be 944e c9be f959 f1bf
00000050: 38d0 2dbf a50e e6be 6ed3 d2be 41e1 0fbf
00000060: 916a 90bd 638d 35bf 8065 7fbf c067 27bf
00000070: 903b 93bf b66c 93be e43b c7be c43b e9be
00000080: d118 30bf 6604 93be 87f8 16bf eeac 6fbf
00000090: 35f2 a2be 1db5 98be 1ab2 dbbe 5934 96bf
000000a0: 5105 28c0 8e7c 2ebf 6a6a 80bf d402 31bf
000000b0: d3f9 eebe 7eef 91be 0ce0 7dbe c7b6 b3be
000000c0: 0168 44bf b836 02bf 2c42 12bf 4edd bfbf
000000d0: 9c1a 98bf 7c9f 29bf 7176 2abf 8cea 98bf
000000e0: 6824 acbf b219 d6be dad7 bfbe f65d c9be

encoder.fc_Z.2.weight f4 [60, 60]
0.060872152 0.072718345 -0.3990716 0.27314726 -0.060716216 -0.20317864 -0.078963086 0.052682374
-0.13045593 -0.053010467 0.14584063 -0.11077979 0.016052876 -0.4045856 0.09499654 -0.24308352
-0.004878359 -0.30478877 -0.14725605 -0.091656365 -0.04201227 0.021998534 0.020056609 -0.11876805
0.09233085 -0.19522564 0.10490004 -0.17900711 -0.29968238 -0.12178508 0.16858561 -0.07411692
-0.04954679 -0.07510705 -0.13272852 0.0026199683 0.019337429 -0.26546443 -0.19892895 -0.2687713
-0.23765123 -0.19319955 -0.17213225 -0.019569388 0.020686837 -0.16293673 -0.16395429 -0.085420944
-0.19950943 -0.09094852 0.10408847 -0.043088954 0.19714054 -0.01792223 0.08084909 -0.40299466
-0.15289283 0.029542156 -0.0004241063 0.10623563 -0.083074465 0.1429568 -0.18520951 0.22604547
0.15703458 -0.2478123 -0.0016917437 0.055792745 -0.02669126 -0.21346901 0.048971158 -0.18261959
-0.19198428 -1.0119455 0.11346279 -0.19215524 -0.062053915 -0.36346722 -0.41652188 -0.030815454
-0.0054088817 -0.0015584138 0.19649158 -0.1574321 -0.028365718 -0.30651397 -0.012064517 -0.27519402
-0.88652843 0.025197871 0.10926106 -4.417362e-05 0.09674922 0.074210115 -0.014088928 0.12828308
-0.16156878 -0.37064713 -0.4177195 -0.28149843 -0.12968124 -0.07670948 -0.13748974 0.070717566
-0.0841649 -0.045127887 -0.09712633 -0.092431486 -0.25009966 -0.034020886 0.12525938 -0.04300811
0.38497233 0.10055602 0.053098816 -0.22846164 -0.07355296 0.03275035 -0.07374492 -0.029808613
0.07275406 0.04485696 -0.10662205 -0.19524004 -0.09936995 -0.078570224 0.19572626 -0.07470728
-0.58687234 -0.2483869 -0.1389729 -0.04222557 -0.14451148 0.23057197 0.07023897 0.13990071
-0.23315455 -0.075341746 -0.13757662 -0.10856898 0.022814807 -0.10177269 -0.060306482 0.12820524
-0.16466068 -0.11956547 0.05458038 0.18934932 0.19218236 0.23395386 -0.051038314 0.018455684
0.16731519 -0.19206151 -0.17475867 0.2174665 -0.30261114 0.0059028524 0.1285981 0.0740781
0.127054 -0.11341387 0.16068052 -0.116632074 0.0891551 -0.33107525 -0.21284243 -0.06680976
0.18390526 0.033432815 0.24560796 0.4288415 0.22597308 -0.18243736 -0.31224015 -0.14082438
0.010155744 0.21038993 0.0007131378 -0.072046876 -0.018257132 0.020652117 -0.31373662 0.07618935
0.081249066 -0.20786893 -0.044804703 0.022416698 -0.03399008 -0.1567877 0.062272295 -0.18974188
-0.30363888 -0.061646912 0.081694886 -0.25952396 -0.12301994 -0.1568632 -0.3172704 -0.09004338
-0.020171518 -0.066033125 -0.069077484 -0.027763639 -0.07569852 -0.2720006 0.0107762 -0.38380075
0.093397856 -0.08264303 0.042681586 0.09488527 0.042524584 -0.2617284 -0.06542015 -0.03299944
-0.1587969 -0.27026138 -0.21684977 -0.39356235 -0.22889489 0.15481117 -0.20857482 -0.13150588
-0.09289228 -0.08783979 -0.11899691 -0.004435137 -0.35704902 -0.09193121 0.024908736 -0.10361972
-0.08420981 0.118049674 0.11362148 -0.4004722 -0.41531485 0.08298181 0.032380894 0.1850689
-0.06795477 0.15833765 0.05381857 -0.15882258 -0.074049056 -0.01613717 0.02847891 -0.014299839
0.009002258 -0.100827254 0.03519196 -0.15201451 -0.15596963 -0.22283345 0.08771636 -0.077179
00000000: 1455 793d 5bed 943d 1d53 ccbe f5d9 8b3e
00000010: 91b1 78bd 100e 50be 66b7 a1bd 79c9 573d
00000020: 3d96 05be 8121 59bd 3f57 153e 84e0 e2bd
00000030: 5281 833c d825 cfbe 8c8d c23d e3ea 78be
00000040: a4da 9fbb 460d 9cbe 4aca 16be 55b6 bbbd
00000050: 0f15 2cbd 4536 b43c c24d a43c aa3c f3bd
00000060: f517 bd3d 3be9 47be d5d5 d63d a44d 37be
00000070: f86f 99be 756a f9bd b5a1 2c3e 9dca 97bd
00000080: 93f1 4abd bad1 99bd fce9 07be c6b3 2b3b
00000090: 8769 9e3c f4ea 87be 08b4 4bbe 649c 89be
000000a0: d85a 73be 1ad6 45be 7043 30be fb4f a0bc
000000b0: 7177 a93c e3d8 26be a2e3 27be 2df1 aebd
000000c0: 334c 4cbe 3843 babd 562c d53d 0b7e 30bd
000000d0: 36df 493e a4d1 92bc 3594 a53d 5155 cebe
000000e0: f08f 1cbe 6402 f23c 965a deb9 1192 d93d
000000f0: f222 aabd 4463 123e 90a7 3dbe 7778 673e
00000100: accd 203e 82c2 7dbe 80bd ddba ef86 643d
00000110: a1a7 dabc 9f97 5abe fb95 483d a100 3bbe
00000120: 8797 44be 6e87 81bf 2e5f e83d 58c4 44be
00000130: 3f2c 7ebd 6018 babe 5b42 d5be b170 fcbc
00000140: fd3c b1bb b143 ccba 1735 493e e135 21be
00000150: 395f e8bc 66ef 9cbe 40aa 45bc 3be6 8cbe
00000160: 87f3 62bf c46b ce3c 43c4 df3d 1047 39b8
00000170: 7424 c63d 79fb 973d 3fd5 66bc a45c 033e
00000180: 4972 25be 76c5 bdbe 55df d5be 9020 90be
00000190: 29cb 04be dc19 9dbd 1cca 0cbe 5fd4 903d
000001a0: a65e acbd 05d8 38bd 2bea c6bd b84c bdbd
000001b0: 100d 80be 7c59 0bbd ff43 003e 4629 30bd
000001c0: 181b c53e 51f0 cd3d 257e 593d d9f1 69be
000001d0: efa2 96bd 3b25 063d 9407 97bd 3131 f4bc
000001e0: 1500 953d efbb 373d a95c dabd 01ed 47be
000001f0: 7982 cbbd 6de9 a0bd 776c 483e 2100 99bd
00000200: 443d 16bf 2359 7ebe e94e 0ebe b8f4 2cbd
00000210: d1fa 13be 0f1b 6c3e 73d9 8f3d 2242 0f3e
00000220: 11c0 6ebe c64c 9abd e3e0 0cbe 6a59 debd
00000230: 1ee6 ba3c 336e d0bd ee03 77bd 3c48 033e
00000240: cf9c 28be bede f4bd ad8f 5f3d cae4 413e
00000250: 74cb 443e 9a91 6f3e 8d0d 51bd 6030 973c
00000260: ac54 2b3e c6ab 44be f0f3 32be 8aaf 5e3e
00000270: d9ef 9abe b76c c13b 38af 033e 42b6 973d
00000280: 721a 023e 8845 e8bd 6f89 243e ccdc eebd
00000290: f396 b63d b282 a9be 5ef3 59be 8ed3 88bd
000002a0: a951 3c3e d9f0 083d a780 7b3e 1d91 db3e
000002b0: 7d65 673e dcd0 3abe f1dd 9fbe 4434 10be
000002c0: 4764 263c 7570 573e def1 3a3a 508d 93bd
000002d0: fb8f 95bc a12e a93c 16a2 a0be 2909 9c3d
000002e0: e965 a63d 98db 54be 2385 37bd 39a3 b73c
000002f0: 2f39 0bbd f48c 20be 3c11 7f3d b24b 42be
00000300: 8e76 9bbe 7981 7cbd a64f a73d 53e0 84be
00000310: e1f1 fbbd bfa0 20be 4471 a2be aa68 b8bd
00000320: bd3e a5bc 603c 87bd 7f78 8dbd 9270 e3bc
00000330: d307 9bbd aa43 8bbe a98e 303c 8881 c4be
00000340: 6047 bf3d c040 a9bd e3d2 2e3d 3553 c23d
00000350: 422e 2e3d 4401 86be 00fb 85bd 6c2a 07bd
00000360: a89b 22be b35f 8abe de0d 5ebe 0181 c9be
00000370: 6c63 6abe d286 1e3e a394 55be 7aa9 06be
00000380: 4f3e bebd 59e5 b3bd a7b4 f3bd a054 91bb
00000390: 21cf b6be 6e46 bcbd 680d cc3c 9336 d4bd
000003a0: 3176 acbd 07c4 f13d 61b2 e83d b10a cdbe
000003b0: 26a4 d4be 5ef2 a93d d4a1 043d b482 3d3e
000003c0: df2b 8bbd 4423 223e dc70 5c3d 63a2 22be
000003d0: 08a7 97bd 1932 84bc 9a4c e93c df49 6abc
000003e0: 357e 133c 857e cebd 7225 103d b1a9 1bbe
000003f0: 81b6 1fbe 742e 64be a3a4 b33d 0610 9ebd

encoder.fc_Z.2.bias f4 [60]
-0.52556556 -0.34254465 -1.1451467 -0.4130995 -0.5206683 -0.91582835 -0.16921842 2.830607
-0.6334496 -0.5047805 -0.44028094 -0.37536004 -1.5207603 -0.23516867 -0.33516353 -0.18964145
-0.3256128 -0.26460797 -0.56593025 -0.20110291 -0.45214158 -0.52291656 -0.34374422 4.290744
-0.27155995 -0.44147065 -0.2457097 -0.3726292 -0.14045653 -0.10564608 -0.2264803 -0.14732654
-0.57584494 -0.35903254 -0.32330856 -1.1520574 -0.08449658 -0.57967335 -0.4319186 -0.57341915
-0.69497555 -0.233087 -0.4302467 -0.5213673 -0.6977769 -0.17648755 -0.78583413 -0.50046283
-0.72461987 -0.36846533 -0.3692986 -1.368507 -0.4742273 -0.8384995 -0.5782851 -0.17234486
-0.3678272 -0.5414309 -0.5763403 -0.14768419
00000000: 778b 06bf 0362 afbe 2b94 92bf c781 d3be
00000010: 854a 05bf ba73 6abf 9847 2dbe aa28 3540
00000020: c129 22bf 4b39 01bf 816c e1be 312f c0be
00000030: 46a8 c2bf 0ed0 70be 8e9a abbe 5e31 42be
00000040: b9b6 a6be b27a 87be cee0 10bf eced 4dbe
00000050: 1a7f e7be dcdd 05bf 3eff afbe c64d 8940
00000060: e809 8bbe 7108 e2be 539b 7bbe 41c9 bebe
00000070: d6d3 0fbe f95c d8bd 74ea 67be c5dc 16be
00000080: 936a 13bf 1dd3 b7be b388 a5be 9e76 93bf
00000090: 8b0c adbd 7965 14bf 6f24 ddbe 99cb 12bf
000000a0: ebe9 31bf 5cae 6ebe 4c49 dcbe 5478 05bf
000000b0: 82a1 32bf 27b9 34be 6d2c 49bf 551e 00bf
000000c0: b080 39bf 7da7 bcbe b514 bdbe 3d2b afbf
000000d0: eccd f2be e7a7 56bf 7e0a 14bf 2c7b 30be
000000e0: d953 bcbe 379b 0abf 0a8b 13bf 863a 17be

encoder.fc_Z.4.weight f4 [1, 60]
-0.03359662 -0.13391209 0.2141245 0.04482851 -0.018210761 0.16377547 0.011422205 -0.73383594
-0.16105232 -0.06328407 -0.015456233 0.063716695 -0.05163402 -0.21940222 0.24964112 0.12074608
0.18854497 -0.013484341 0.044855148 -0.29709038 0.009366648 -0.019206883 -0.0748096 -0.29807085
-0.15579109 -0.007465764 -0.28864726 -0.26695493 0.04634211 0.09463143 -0.10817468 -0.038467597
0.24672624 -0.017886031 -0.17641847 -0.08013401 0.07735047 -0.13575414 -0.13616735 0.0818772
-0.044245273 0.23728003 -0.11171728 -0.1810723 -0.16045877 -0.15268704 0.27574182 0.12892994
-0.086544454 0.16324437 0.14972843 0.18344074 0.1460641 -0.022605265 -0.010219899 -0.07291888
0.06995067 0.35382906 0.17218271 -0.059249964
00000000: 9c9c 09bd 4020 09be 7443 5b3e 1a9e 373d
00000010: bc2e 95bc c2b4 273e 3324 3b3c acdc 3bbf
00000020: e6ea 24be 149b 81bd 243c 7dbc e67d 823d
00000030: 327e 53bd faaa 60be eca1 7f3e b949 f73d
00000040: ef11 413e 6ded 5cbc 08ba 373d 3b1c 98be
00000050: 9276 193c c157 9dbc c735 99bd be9c 98be
00000060: b387 1fbe 5ea3 f4bb 93c9 93be 51ae 88be
00000070: 39d1 3d3d 20ce c13d b08a ddbd 3390 1dbd
00000080: cea5 7c3e ba85 92bc 0ba7 34be 4d1d a4bd
00000090: ec69 9e3d 2203 0bbe 746f 0bbe 3caf a73d
000000a0: 883a 35bd 89f9 723e 07cc e4bd 046b 39be
000000b0: 4e4f 24be fe59 1cbe 082e 8d3e 3606 043e
000000c0: 383e b1bd 8829 273e 6952 193e e4d7 3b3e
000000d0: d491 153e ad2e b9bc 5d71 27bc 7e56 95bd
000000e0: 4c42 8f3d 1529 b53e aa50 303e 17b0 72bd
